saved_weights.pt (torch, 76167 bytes, 6 tensors)

weight_ih_l0 f4 [256, 4]
0.010045466 0.09200753 0.104802184 -0.005366237 0.038546912 -0.052934177 0.14484565 0.042732533
0.037451655 0.03137554 0.041056093 0.16315728 0.13324314 -0.044181902 -0.063310556 0.10190355
-0.020724025 0.16763681 -0.044003878 0.062051587 0.09128286 0.041480277 0.06264773 -0.048734322
0.07224172 0.061082345 0.05653149 0.036008082 -0.011203626 0.05346788 0.08126561 0.06761756
0.081454195 0.098574065 -0.046223138 -0.06039777 0.112142704 -0.038242955 0.07122859 0.121950485
0.16781995 -0.029988278 -0.024912661 0.08239899 0.022448234 0.052694216 0.18487878 0.026734559
0.066802725 -0.008178405 -0.049197555 0.07834769 0.11142975 0.00052619865 0.07465702 0.08303405
-0.03611801 0.054884914 0.036681283 0.11631344 0.06726155 0.002270406 0.08445358 -0.044970065
0.037424896 0.13397363 0.012366812 0.14708814 -0.046886995 0.14898701 0.1649986 0.00013685151
0.07347544 -0.0025720135 0.02013151 0.040138923 0.02993844 -0.01865975 0.08452715 0.07468425
0.0062701562 0.06293487 0.026092445 0.16990177 0.07635506 -0.019260522 -0.015562407 0.12325784
0.12856498 -0.012792328 0.057971045 0.1410675 0.014051996 0.0012456219 0.15739723 0.15751588
0.06607698 -0.07307181 0.15371622 0.056923714 0.12785633 0.12716125 -0.03872379 -0.04397101
0.105572514 -0.0026392944 -0.06128725 0.079855904 0.021560246 0.08789771 0.02054585 0.13163832
-0.041613426 -0.0144913215 -0.07095879 -0.022951895 0.13779362 0.09219688 -0.0653497 0.106115736
0.12749255 0.040872715 -0.07225335 -0.010310455 -0.04929144 -0.060175817 -0.0068614064 -0.028418181
-0.037783228 -0.0046166386 0.027371908 0.046358284 0.06817305 0.14044268 0.06236924 0.10781609
0.042287864 -0.028783996 -0.00863004 0.06661578 0.08054308 -0.0034582317 0.06585996 -0.06727804
-0.0045808395 0.10306823 0.124971524 0.026042618 0.07371718 0.12116835 0.06522281 0.034277678
0.09502225 0.026200037 -0.07080165 0.16050148 0.1088499 0.059525613 -0.015716868 0.06479894
-0.06564034 0.10399603 -0.06057213 0.13491203 0.14974867 0.02985885 0.13918985 0.14893016
-0.07137656 0.16707417 0.037185617 0.073566064 0.03347995 0.06079751 0.08639268 0.12682313
-0.06359984 0.048672847 0.037959777 0.13184124 0.17371133 0.19192643 0.15878114 0.17319132
0.16949534 -0.015773388 -0.05763752 -0.027776813 -0.03425274 0.0219164 -0.024246711 0.02725505
0.07087518 0.0411218 0.06028724 0.09291384 0.0742365 0.16641098 0.13066961 0.1404509
0.119416356 -0.028138537 -0.07248136 0.16365053 0.07752633 0.042565446 0.1286218 0.027931314
-0.100775965 -0.034658935 0.08831992 -0.10249012 0.014151633 0.08286957 0.11993166 0.08156039
0.1601976 0.04805312 -0.0132108135 -0.024300996 0.164743 -0.015751675 -0.06077549 -0.015607669
0.004223994 0.14079246 -0.04845612 -0.014070882 0.0154424375 0.022738898 0.10515685 0.07446163
0.016767774 0.15107791 -0.011344307 -0.04833014 0.13228817 -0.058222372 0.112976894 0.0217415
0.040203154 0.07012148 0.08813785 0.016631288 0.06739051 0.06235583 0.119325384 -0.009606151
0.12692265 0.14808841 -0.04749183 0.005174819 0.10729968 0.0037263916 -0.03344313 -0.057853132
00000000: bd95 243c 726e bc3d 87a2 d63d 42d7 afbb
00000010: 5ee3 1d3d 82d1 58bd 6b52 143e 4f08 2f3d
00000020: e866 193d a383 003d 6f2a 283d b412 273e
00000030: e470 083e 15f8 34bd f7a8 81bd cfb2 d03d
00000040: 6ec5 a9bc fca8 2b3e 693d 34bd ce29 7e3d
00000050: 82f2 ba3d 39e7 293d 744d 803d a49d 47bd
00000060: 78f3 933d 7b31 7a3d 908d 673d 367d 133d
00000070: 6a8f 37bc 2301 5b3d 966e a63d 137b 8a3d
00000080: 75d1 a63d 33e1 c93d 7954 3dbd a763 77bd
00000090: 13ab e53d a5a4 1cbd 4ce0 913d 2dc1 f93d
000000a0: fed8 2b3e faa9 f5bc a315 ccbc cdc0 a83d
000000b0: 5ce5 b73c e4d5 573d dd50 3d3e 6f02 db3c
000000c0: decf 883d b8fe 05bc 6083 49bd c174 a03d
000000d0: 4835 e43d 98f0 093a c8e5 983d c20d aa3d
000000e0: 7af0 13bd 01cf 603d 1d3f 163d be35 ee3d
000000f0: 6cc0 893d 18cb 143b 00f6 ac3d 8832 38bd
00000100: d94a 193d 6230 093e 2b9e 4a3c 469e 163e
00000110: 940c 40bd 0d90 183e 65f5 283e cc7f 0f39
00000120: 4b7a 963d 3a8f 28bb d6ea a43c b668 243d
00000130: 7641 f53c 55dc 98bc 921c ad3d 0ef4 983d
00000140: e275 cd3b ffe3 803d d3bf d53c bbfa 2d3e
00000150: 0b60 9c3d 3ec8 9dbc 77f9 7ebc 9b6e fc3d
00000160: 8aa6 033e ea96 51bc 0c73 6d3d 0074 103e
00000170: 583a 663c 2344 a33a bd2c 213e d84b 213e
00000180: 5e53 873d aca6 95bd c967 1d3e d728 693d
00000190: c5ec 023e 8f36 023e d69c 1ebd f21a 34bd
000001a0: 6736 d83d 03f8 2cbb 5708 7bbd 7e8b a33d
000001b0: 1d9f b03c b703 b43d c54f a83c 32cc 063e
000001c0: d772 2abd 026d 6dbc d852 91bd 9d05 bcbc
000001d0: c519 0d3e b8d1 bc3d 10d6 85bd 3553 d93d
000001e0: 688d 023e 266a 273d 90f9 93bd 2fed 28bc
000001f0: d2e5 49bd eb7a 76bd a6d5 e0bb 3fcd e8bc
00000200: 96c2 1abd 2c47 97bb 0d3b e03c 2fe2 3d3d
00000210: 509e 8b3d 35d0 0f3e e376 7f3d afce dc3d
00000220: 0a36 2d3d 6acc ebbc 0365 0dbc db6d 883d
00000230: c5f3 a43d 80a3 62bb 96e1 863d 12c9 89bd
00000240: de1a 96bb 7015 d33d 12f1 ff3d 5457 d53c
00000250: 08f9 963d 1d27 f83d 8993 853d c066 0c3d
00000260: 079b c23d 76a1 d63c 7500 91bd 805a 243e
00000270: b2ec de3d 21d1 733d a9c0 80bc 4fb5 843d
00000280: 716e 86bd dffb d43d 7b1a 78bd 6126 0a3e
00000290: b757 193e 8c9a f43c c987 0e3e 2681 183e
000002a0: e02d 92bd 7e15 2b3e f24f 183d cea9 963d
000002b0: 4622 093d cf06 793d a5ee b03d ecdd 013e
000002c0: a240 82bd 2e5d 473d b67b 1b3d 6401 073e
000002d0: 62e1 313e 5d88 443e 8697 223e 1159 313e
000002e0: 3090 2d3e 3137 81bc 5215 6cbd 338c e3bc
000002f0: 9a4c 0cbd 068a b33c 0aa1 c6bc fc45 df3c
00000300: 0227 913d 556f 283d c1ef 763d 9d49 be3d
00000310: 4e09 983d a467 2a3e 41ce 053e 5cd2 0f3e
00000320: 9090 f43d ca82 e6bc 1b71 94bd 0194 273e
00000330: 20c6 9e3d 1b59 2e3d 6fb5 033e 36d0 e43c
00000340: a163 cebd 87f6 0dbd 13e1 b43d 57e6 d1bd
00000350: 40dc 673c 85b7 a93d bb9e f53d 2209 a73d
00000360: d70a 243e 59d3 443d 2b72 58bc e212 c7bc
00000370: 64b2 283e a809 81bc b8ef 78bd 4fb7 7fbc
00000380: 6e69 8a3b e62b 103e ed79 46bd 8f89 66bc
00000390: 4702 7d3c ed46 ba3c 795c d73d 577f 983d
000003a0: 925c 893c 2bb4 1a3e 79dd 39bc d3f5 45bd
000003b0: 8d76 073e 957a 6ebd 6e60 e73d 3b1b b23c
000003c0: 10ac 243d da9b 8f3d 9e81 b43d 573e 883c
000003d0: 0904 8a3d d468 7f3d de60 f43d 1e63 1dbc
000003e0: 03f8 013e 7da4 173e cb86 42bd 8791 a93b
000003f0: efbf db3d 7a36 743b aafb 08bd 68f7 6cbd

weight_hh_l0 f4 [256, 64]
-0.047973793 -0.004194967 -0.06880449 0.0054009687 -0.073869236 0.14518578 0.07669293 0.017030071
0.1082158 0.013745378 0.046424907 0.078701876 0.1000641 0.11535414 0.042147677 0.03642535
0.096529566 -0.114581764 -0.09512356 0.03377307 -0.05776431 -0.019664673 0.070388325 -0.10084497
-0.08166772 0.052885443 -0.054047342 -0.074516825 0.11333103 -0.024017766 -0.08724757 0.06585213
-0.023944803 0.04146638 0.08153451 -0.14586852 0.046619702 -0.03218057 -0.081676885 -0.059863262
-0.028174771 -0.054884873 -0.045814592 0.015803618 0.06703582 0.08179832 -0.036251828 0.028500373
-0.015936915 -0.040308096 0.015223325 -0.0056873937 0.019955873 0.04264025 0.09081973 -0.09358045
-0.13559657 -0.09728801 0.050646726 -0.008193893 0.07088531 -0.025898855 -0.1350523 0.22270937
-0.14771919 0.15470646 0.05312949 -0.10799125 -0.013804235 -0.12824222 0.13585977 0.09321331
-0.09416671 0.022689769 -0.03658687 -0.045242187 -0.037891302 -0.05568474 -0.097062096 -0.074235946
-0.071110696 -0.037341885 -0.0011035644 0.028881107 -0.049818262 0.19330719 -0.1445219 -0.004398042
-0.12092411 0.15273748 -0.06651137 -0.07346355 0.022866048 0.019054303 -0.047495015 0.23206128
0.010539742 0.10315322 -0.06340626 0.0258491 -0.042688716 0.022302255 -0.16963382 0.06892123
-0.13668318 -0.08350088 -0.27852643 -0.14077711 -0.11858749 0.06946056 -0.025267188 -0.010817091
-0.12116857 0.13140935 0.013224177 0.063542694 -0.1355973 0.0713785 0.12628888 -0.12980211
-0.32139492 0.026550347 -0.017185982 0.06068941 0.14542973 0.05076923 -0.057592418 0.21423024
-0.07783101 0.012432708 -0.11131256 0.0051407972 0.12458423 0.049382124 -0.08323518 -0.090126306
-0.029885493 -0.07831856 0.10167795 0.046340365 -0.08510017 0.039677944 -0.067181416 0.08794775
-0.12511061 0.10708585 0.045412857 0.030841932 0.12002402 0.10067834 0.17080462 0.12289133
-0.11463637 0.023667285 0.011743067 0.00736205 0.11614326 -0.03636156 0.07781659 0.066209175
-0.013120016 -0.10992104 0.12046962 -0.1527302 0.08390359 -0.042994473 0.22970152 -0.09772338
-0.1270856 -0.16571034 0.019815035 -0.08143529 -0.02631828 0.00043964418 -0.08608009 0.0012657574
-0.094942994 0.111927405 -0.09985717 -0.086124994 -0.12837231 0.075956866 0.06799315 -0.06297047
-0.026618952 -0.14009261 0.011058412 -0.16788964 0.109011844 0.039073158 -0.010334595 0.035595544
-0.18898399 0.07684232 -0.03928285 -0.10571853 0.09817866 -0.21436194 -0.024564903 0.026104545
0.036454555 0.08109087 0.0989943 0.032667425 -0.10415985 0.07436458 -0.13491814 -0.0067921574
0.0070937173 0.02941712 0.1505462 0.070531204 0.102502756 -0.047378834 0.040609185 -0.0075780572
-0.035429634 0.049159937 -0.084132634 0.06054392 0.004950148 -0.06915695 0.17898397 0.04655433
-0.14579429 0.17319672 0.045064274 -0.018774169 0.09079496 0.14346465 -0.22157939 0.09694549
-0.06275063 -0.07143096 -0.22922553 -0.060562827 -0.030744094 -0.012852369 -0.04319877 -0.030303499
-0.1355666 -0.1354645 0.14838137 0.10369099 -0.017484555 0.06236115 0.1056956 0.070397265
-0.14956643 -0.15931273 -0.050925985 0.01559985 0.16702215 0.0059289853 0.058476865 0.14258288
00000000: 2b80 44bd ef75 89bb 5ee9 8cbd 9cfa b03b
00000010: c148 97bd 95ab 143e 2f11 9d3d a682 8b3c
00000020: 3fa0 dd3d 4b34 613c 0b28 3e3d 732e a13d
00000030: 68ee cc3d cb3e ec3d 0ba3 2c3d bf32 153d
00000040: 4bb1 c53d d8a9 eabd 24d0 c2bd a155 0a3d
00000050: 459a 6cbd cf17 a1bc c127 903d cf87 cebd
00000060: 6841 a7bd 689e 583d bf60 5dbd 479c 98bd
00000070: 191a e83d e8c0 c4bc dbae b2bd 7bdd 863d
00000080: e427 c4bc a7d8 293d 91fb a63d 8f5e 15be
00000090: 4df4 3e3d c6cf 03bd 3646 a7bd 2e33 75bd
000000a0: c7ce e6bc f6ce 60bd 15a8 3bbd 9776 813c
000000b0: 134a 893d e185 a73d cc7c 14bd 9d79 e93c
000000c0: 228e 82bc 1a1a 25bd 416b 793c 515d babb
000000d0: 807a a33c 8ba7 2e3d b2ff b93d 1ba7 bfbd
000000e0: d4d9 0abe f03e c7bd f172 4f3d ae3f 06bc
000000f0: 512c 913d d629 d4bc 264b 0abe ed0d 643e
00000100: b343 17be 5f6b 1e3e 4f9e 593d 842a ddbd
00000110: 282b 62bc ee51 03be d31e 0b3e 9fe6 be3d
00000120: 7ada c0bd e5df b93c 1ddc 15bd df4f 39bd
00000130: e933 1bbd af15 64bd 7ec8 c6bd 0409 98bd
00000140: 7ca2 91bd cef3 18bd 7aa5 90ba 1298 ec3c
00000150: 3c0e 4cbd 52f2 453e 8dfd 13be 731d 90bb
00000160: 0fa7 f7bd 3767 1c3e 1d37 88bd 0f74 96bd
00000170: 9451 bb3c c517 9c3c 228a 42bd 79a1 6d3e
00000180: e2ae 2c3c ff41 d33d 24db 81bd 7ec1 d33c
00000190: 5dda 2ebd 38b3 b63c 7db4 2dbe 9326 8d3d
000001a0: adf6 0bbe 8202 abbd 049b 8ebe e027 10be
000001b0: ffdd f2bd 5741 8e3d 22fd cebc 2b3a 31bc
000001c0: 3a27 f8bd 2c90 063e 38aa 583c ac22 823d
000001d0: 05da 0abe e42e 923d df51 013e d8ea 04be
000001e0: e08d a4be 1d80 d93c 9ec9 8cbc 7595 783d
000001f0: 88eb 143e 65f3 4f3d 07e6 6bbd 2c5f 5b3e
00000200: dd65 9fbd 8fb2 4b3c d7f7 e3bd 2274 a83b
00000210: 0426 ff3d e944 4a3d 3577 aabd 2494 b8bd
00000220: 6cd2 f4bc 7b65 a0bd 873c d03d 65cf 3d3d
00000230: ff48 aebd 5785 223d 6996 89bd f31d b43d
00000240: ff1c 00be d34f db3d d502 3a3d 38a8 fc3c
00000250: 27cf f53d 7230 ce3d 68e7 2e3e 73ae fb3d
00000260: 79c6 eabd e5e1 c13c fe65 403c 5a3d f13b
00000270: 84dc ed3d dcef 14bd 4e5e 9f3d ad98 873d
00000280: 56f5 56bc 481e e1bd c7b8 f63d 4e65 1cbe
00000290: a5d5 ab3d f91a 30bd e036 6b3e 3223 c8bd
000002a0: ba22 02be f9af 29be 2453 a23c 8cc7 a6bd
000002b0: 6f99 d7bc 0b80 e639 c24a b0bd c5e7 a53a
000002c0: 7971 c2bd 323a e53d ea81 ccbd 4d62 b0bd
000002d0: 0874 03be 468f 9b3d fe3f 8b3d a9f6 80bd
000002e0: fd0f dabc 7074 0fbe 572e 353c 43eb 2bbe
000002f0: 9a41 df3d 2d0b 203d 6f52 29bc a2cc 113d
00000300: 0585 41be 825f 9d3d 0ee7 20bd f582 d8bd
00000310: e511 c93d b281 5bbe 563c c9bc 33d9 d53c
00000320: 5f51 153d f812 a63d 86bd ca3d 47ce 053d
00000330: c251 d5bd 754c 983d fb27 0abe bf90 debb
00000340: 6a72 e83b 2cfc f03c c828 1a3e aa72 903d
00000350: f7ec d13d 4f10 42bd d155 263d 5a51 f8bb
00000360: aa1e 11bd ee5b 493d bb4d acbd e7fc 773d
00000370: da34 a23b 29a2 8dbd 9347 373e c1af 3e3d
00000380: 194b 15be 7b5a 313e 5195 383d 49cc 99bc
00000390: b5f2 b93d 66e8 123e b5e5 62be 5b8b c63d
000003a0: 6783 80bd 654a 92bd 19ba 6abe ba10 78bd
000003b0: 0adb fbbc be92 52bc 32f1 30bd 0b3f f8bc
000003c0: f9d1 0abe 35b7 0abe 49f1 173e f15b d43d
000003d0: c53b 8fbc 686e 7f3d ef76 d83d 712c 903d
000003e0: f127 19be e022 23be c497 50bd 8396 7f3c
000003f0: db07 2b3e ef47 c23b 7085 6f3d 3f01 123e

bias_ih_l0 f4 [256]
-0.07307283 -0.15111555 -0.0678999 0.0036033164 0.09453603 -0.052646 0.148202 0.08533194
-0.12389629 -0.027491935 0.0563344 -0.010357676 -0.013893985 -0.050996542 0.026324898 -0.12825416
-0.04803505 0.06265063 -0.074419565 0.054981202 -0.15477121 0.0059853047 0.04834406 -0.07622301
0.061210647 0.034775473 -0.14113541 0.011956418 0.013530796 -0.046082184 0.054401614 0.10158556
-0.0053176265 -0.04196832 -0.0035791795 -0.15124865 -0.12491536 -0.010095936 0.106482826 0.0023747522
0.0016453462 0.11346069 0.08527083 0.008166302 -0.16745676 -0.07536293 -0.07332648 -0.0049866494
0.03463019 0.0007408945 0.006373187 -0.110404655 -0.059141643 -0.050011307 -0.10014188 0.038036432
0.08501425 -0.060873907 -0.041971993 0.042443473 -0.018436536 -0.110821694 -0.11925932 -0.05410727
0.002287813 -0.01333252 -0.10824122 -0.1159768 0.057782207 0.0019912783 0.023783576 0.055865094
-0.021134242 0.03021763 -0.048444353 -0.083090045 0.06943355 0.05464968 0.048088208 0.02573716
0.014205204 -0.11551795 -0.13690762 0.03395651 -0.13597128 0.009004972 0.007686092 -0.11478463
0.05089478 0.025651239 0.00028745705 -0.008902909 0.010699133 -0.15037346 -0.08098029 0.02582763
-0.1629101 -0.0025139446 0.12384655 -0.084377 0.053862177 0.11185582 -0.2360686 -0.02191013
-0.07025298 -0.12184724 -0.07076666 -0.13295533 -0.11393455 0.07430382 0.11609451 -0.11584086
-0.07081679 0.045066517 -0.14537016 -0.0593234 0.07397921 -0.13750802 -0.14348342 0.034969985
-0.039966617 -0.0051792203 -0.14563361 -0.10003872 -0.01279352 -0.15851615 0.018406155 0.07128458
0.13532636 -0.04840463 -0.024670783 0.03238697 -0.056123976 0.13100651 -0.1487907 0.0039341557
-0.10646453 0.02846873 0.07230682 -0.11988829 -0.038696203 -0.06116688 0.021945784 0.016174639
-0.09592551 -0.043919872 0.026945414 -0.124067165 -0.09724298 -0.14172739 0.070946254 0.1141839
-0.09764371 0.080837764 -0.034897234 -0.02141575 0.048271675 -0.010779376 0.0151153505 -0.10219862
0.012597546 -0.013500704 0.0734596 0.022852132 0.05283855 -0.05991085 -0.016280899 -0.07443543
0.16927403 0.05237489 0.015929842 -0.0013841109 0.06271167 -0.06191923 -0.08335492 0.09065714
0.15151155 -0.05406232 0.03321586 0.0513951 -0.07614202 -0.05247688 0.017781088 -0.023822172
0.057039563 -0.12788223 0.08229168 0.10325364 -0.110249914 -0.086358555 -0.045203894 -0.119188085
-0.07864009 0.05672858 -0.072253115 -0.04754857 0.026485661 0.099107884 0.013042775 0.097049505
0.1064584 -0.056292392 -0.03992226 -0.04851193 0.058434825 0.10319709 0.0334638 -0.106068514
-0.06998206 0.12191273 0.091235705 0.055153366 -0.054586478 0.15526095 -0.08382555 -0.0349832
0.07724709 0.0123197045 -0.09925796 0.077316634 0.118574955 0.044738345 0.07908192 0.14346924
0.086111754 0.05581956 -0.023140538 -0.08475735 0.08914141 0.17370604 -0.083255544 -0.080503725
-0.027167194 0.041193664 0.027925868 -0.0014339683 -0.083085895 -0.018503755 0.13313103 -0.014800438
0.06283132 -0.084627144 -0.022095121 -0.059245955 -0.14928798 -0.02011576 0.1390302 0.080294035
0.11443482 -0.019184757 -0.00027395628 -0.0026016443 0.051193766 0.010230848 0.0246266 0.10076031
00000000: 35a7 95bd 09be 1abe 1a0f 8bbd 9e25 6c3b
00000010: 1b9c c13d 55a3 57bd 44c2 173e 83c2 ae3d
00000020: 57bd fdbd c436 e1bc e6be 663d 3eb3 29bc
00000030: 99a3 63bc c0e1 50bd 50a7 d73c 0f55 03be
00000040: 67c0 44bd f94e 803d 4969 98bd f833 613d
00000050: 587c 1ebe 6020 c43b 6c04 463d cf1a 9cbd
00000060: 04b8 7a3d ba70 0e3d cd85 10be dae4 433c
00000070: 46b0 5d3c acc0 3cbd 3ad4 5e3d 170c d03d
00000080: 7c3f aebb f9e6 2bbd ab90 6abb ede0 1abe
00000090: a0d3 ffbd 6d69 25bc ab13 da3d bba1 1b3b
000000a0: a8a8 d73a 145e e83d 79a2 ae3d f4cb 053c
000000b0: c979 2bbe e157 9abd 322c 96bd 0c67 a3bb
000000c0: 63d8 0d3d 9738 423a 2bd6 d03b d61b e2bd
000000d0: 823e 72bd a8d8 4cbd 3017 cdbd 17cc 1b3d
000000e0: f31b ae3d eb56 79bd d3ea 2bbd 35d9 2d3d
000000f0: 3808 97bc 7cf6 e2bd 3b3e f4bd 969f 5dbd
00000100: 22ef 153b a470 5abc 93ad ddbd 3f85 edbd
00000110: 09ad 6c3d 1b80 023b c6d5 c23c ccd2 643d
00000120: b821 adbc f78a f73c 966d 46bd 1d2b aabd
00000130: 2d33 8e3d 58d8 5f3d 24f8 443d bdd6 d23c
00000140: f2bc 683c ad94 ecbd 8331 0cbe fb15 0b3d
00000150: 0e3c 0bbe 9789 133c 9ddb fb3b 3414 ebbd
00000160: 0b77 503d 8c22 d23c d5b5 9639 82dd 11bc
00000170: 6b4b 2f3c 80fb 19be ffd8 a5bd 7794 d33c
00000180: e8d1 26be fec0 24bb 43a3 fd3d d9cd acbd
00000190: 969e 5c3d aa14 e53d f8bb 71be df7c b3bc
000001a0: cbe0 8fbd 0c8b f9bd 1cee 90bd 7125 08be
000001b0: 8456 e9bd 9a2c 983d f5c2 ed3d f93d edbd
000001c0: 6508 91bd ab97 383d eadb 14be 18fd 72bd
000001d0: 6982 973d e7ce 0cbe 51ed 12be b03c 0f3d
000001e0: 09b4 23bd 73b6 a9bb fa20 15be 1ae1 ccbd
000001f0: ea9b 51bc 0f52 22be 81c8 963c a6fd 913d
00000200: fe92 0a3e ef43 46bd 621a cabc 33a8 043d
00000210: 41e2 65bd 9226 063e 975c 18be 17ea 803b
00000220: 130a dabd 4137 e93c 9915 943d fe87 f5bd
00000230: e97f 1ebd 1f8a 7abd a5c7 b33c ad80 843c
00000240: 9874 c4bd 53e5 33bd a1bc dc3c ed16 febd
00000250: 5427 c7bd fc20 11be 454c 913d 40d9 e93d
00000260: 6df9 c7bd 458e a53d 67f0 0ebd 1570 afbc
00000270: 85b8 453d fb9b 30bc 60a6 773c 834d d1bd
00000280: f065 4e3c 0f32 5dbc fd71 963d 6534 bb3c
00000290: 3c6d 583d 1465 75bd 855f 85bc 9a71 98bd
000002a0: 2c56 2d3e 0d87 563d 4d7f 823c 0e6b b5ba
000002b0: fa6e 803d 059f 7dbd fcb5 aabd 73aa b93d
000002c0: d825 1b3e 7470 5dbd 5b0d 083d ab83 523d
000002d0: 59f0 9bbd fff1 56bd a5a9 913c b726 c3bc
000002e0: 51a2 693d 8ff3 02be 8a88 a83d a576 d33d
000002f0: b5ca e1bd c1dc b0bd b827 39bd e218 f4bd
00000300: 0e0e a1bd 3a5c 683d 71f9 93bd 4ac2 42bd
00000310: 75f8 d83c 13f9 ca3d 5db1 553c e4c1 c63d
00000320: dd06 da3d da92 66bd 8685 23bd 72b4 46bd
00000330: 5b59 6f3d ff58 d33d 5611 093d 733a d9bd
00000340: c152 8fbd 62ad f93d c9d9 ba3d 7fe8 613d
00000350: 1296 5fbd bafc 1e3e bbac abbd 8b4a 0fbd
00000360: b933 9e3d 96d8 493c c247 cbbd 2f58 9e3d
00000370: 6dd7 f23d 8e3f 373d b4f5 a13d 9ae9 123e
00000380: 5c5b b03d 0da3 643d 3a91 bdbc 4395 adbd
00000390: c68f b63d ffdf 313e e281 aabd 23df a4bd
000003a0: bc8d debc b0ba 283d cac4 e43c fef3 bbba
000003b0: f028 aabd 3095 97bc 8053 083e 897d 72bc
000003c0: b5ad 803d ff50 adbd d400 b5bc e3ab 72bd
000003d0: f3de 18be cec9 a4bc ef5d 0e3e 3371 a43d
000003e0: ce5c ea3d 5a29 9dbc caa1 8fb9 5980 2abb
000003f0: 8eb0 513d 499f 273c b9bd c93c 6c5b ce3d

bias_hh_l0 f4 [256]
0.035223816 0.037336897 -0.052633204 0.06685062 0.092115305 -0.027293585 -0.073794454 0.062107574
0.040144797 -0.008816982 0.052946836 0.08831869 -0.045623213 -0.13582352 -0.14356978 -0.11669126
-0.084089756 -0.005287535 -0.10214069 -0.018196933 -0.10811055 0.07121649 0.06952432 -0.06828149
0.010311287 -0.10422072 -0.17347173 0.106919825 0.11140395 -0.07183947 -0.117748074 0.18161304
0.07923221 0.052695554 0.09460974 0.06404307 -0.09681088 -0.05540821 0.061986707 0.066968575
-0.06347365 0.04882541 0.048470676 -0.115629904 -0.14339118 0.07956656 -0.059334546 -0.058279403
0.045116313 0.006425684 0.007326691 -0.002438462 -0.0038333081 0.013030719 -0.071621805 -0.0011231891
-0.009931417 -0.12724046 0.11160387 0.02159735 -0.10722214 -0.030526388 0.055508923 0.12507965
-0.019968962 0.04672845 0.06657346 -0.15341826 0.024579203 -0.1184279 0.17772909 0.11744828
-0.12200346 0.011704583 -0.049869552 -0.1285753 -0.025688505 0.07498892 -0.14625299 0.010114415
-0.09397819 -0.1610968 -0.024067573 0.06795552 -0.063388325 -0.093833 -0.032013144 0.046181377
-0.04479584 -0.03823407 -0.04064763 0.007841153 -0.060233243 -0.05319551 -0.04960279 0.04812195
0.010695148 0.1271543 0.023431651 -0.0028211747 -0.1347433 -0.088336095 -0.049935278 0.0820589
-0.016163314 0.0037596284 -0.0012671914 0.030463427 -0.11786632 -0.018326415 -0.10257233 -0.15121627
-0.15316944 0.1283215 -0.11890547 0.08251767 -0.12523073 -0.12277873 0.034270085 0.06892059
0.04543579 0.05671855 -0.12808296 -0.085797206 0.0017542117 -0.110476546 -0.10151923 -0.07759002
-0.046048816 0.049668673 0.14780928 0.11914505 0.040682092 -0.010855891 -0.14817913 -0.19735076
-0.046093997 -0.035225134 -0.14446627 0.054540884 0.11926511 0.035191778 -0.036172442 -0.00061774725
0.11294621 -0.028409488 -0.1210229 -0.09359201 -0.082409516 -0.036410976 -0.08183951 0.08561841
0.0157379 0.08186833 -0.047865126 0.04267655 0.12846224 -0.090717964 -0.057430513 -0.0044016894
-0.014886146 -0.1323066 -0.05685841 0.057234585 0.027744105 0.041762695 0.15599695 -0.05943555
-0.06913471 0.13038436 0.13280872 0.06337657 0.005533062 0.07349913 0.053426433 -0.086694576
0.08588116 0.06322659 0.080679804 -0.1389913 -0.008028027 0.077626705 0.043837607 -0.111949585
0.16405231 -0.034932718 0.06672963 0.15996365 -0.046286613 0.093629114 -0.121817574 -0.013690968
-0.072406694 0.12331862 0.05451925 -0.04662081 0.038468614 -0.039946843 0.167218 -0.07848579
-0.10105965 0.032397076 -0.11525927 -0.050255198 0.10212259 -0.042285334 -0.09882783 0.09243665
0.05744321 -0.021437112 -0.09218987 -0.050494228 -0.076261446 -0.04023959 -0.044571154 0.045432206
0.078753725 -0.05282432 -0.07680668 -0.05805522 0.07428143 -0.038240567 0.018527133 0.16126123
0.06619799 -0.002127388 -0.036379486 -0.070269026 -0.037401583 -0.046807498 -0.011616469 -0.0015771019
-0.019653318 0.106525786 -0.070849255 -0.18326448 0.09197633 0.09238322 0.052396648 -0.013215681
0.032900233 0.11465595 0.012184848 0.11004493 -0.12771486 -0.1275404 -0.06232706 0.070391975
0.12304487 0.14852902 -0.13175285 0.083798036 0.025264008 -0.085348986 0.09557929 0.10702114
00000000: d946 103d 93ee 183d ea95 57bd fae8 883d
00000010: f3a6 bc3d cc96 dfbc 8c21 97bd 8364 7e3d
00000020: df6e 243d 1a75 10bc c8de 583d 6ee0 b43d
00000030: 68df 3abd 5215 0bbe f503 13be d4fb eebd
00000040: 4037 acbd 0f43 adbb 232f d1bd bc11 95bc
00000050: 1069 ddbd f3d9 913d c462 8e3d 2ad7 8bbd
00000060: acf0 283c ac71 d5bd 93a2 31be c8f8 da3d
00000070: c127 e43d 9220 93bd e725 f1bd c5f8 393e
00000080: 7f44 a23d 4bd7 573d c0c2 c13d 0329 833d
00000090: c844 c6bd b8f3 62bd c6e5 7d3d d226 893d
000000a0: 79fe 81bd 27fd 473d 3089 463d 5fcf ecbd
000000b0: 23d5 12be cbf3 a23d c808 73bd 62b6 6ebd
000000c0: e2cb 383d 8b8e d23b bd14 f03b 9bce 1fbb
000000d0: 3d38 7bbb cc7e 553c 74ae 92bd f937 93ba
000000e0: 62b7 22bc 534b 02be 9290 e43d edec b03c
000000f0: 4897 dbbd 7a12 fabc 535d 633d e114 003e
00000100: f395 a3bc 5566 3f3d ab57 883d ad19 1dbe
00000110: 535a c93c 548a f2bd 9dfe 353e b988 f03d
00000120: f3dc f9bd 94c4 3f3c 0444 4cbd 3ea9 03be
00000130: b370 d2bc ca93 993d 58c3 15be eeb6 253c
00000140: a377 c0bd 8ff6 24be 5c29 c5bc 432c 8b3d
00000150: bdd1 81bd 842b c0bd 3720 03bd af28 3d3d
00000160: d87b 37bd 549b 1cbd 217e 26bd 2e78 003c
00000170: 22b7 76bd 89e3 59bd 4c2c 4bbd 861b 453d
00000180: b43a 2f3c bd34 023e bcf3 bf3c 75e3 38bb
00000190: 26fa 09be 8ee9 b4bd ef88 4cbd 7f0e a83d
000001a0: ed68 84bc 1964 763b e317 a6ba 708e f93c
000001b0: e663 f1bd 4721 96bc 7111 d2bd 70d8 1abe
000001c0: 73d8 1cbe b666 033e b684 f3bd 06ff a83d
000001d0: 7c3c 00be 6a73 fbbd ca5e 0c3d 3d26 8d3d
000001e0: e11a 3a3d b651 683d 2e28 03be 72b6 afbd
000001f0: 94ed e53a 8741 e2bd 50e9 cfbd 84e7 9ebd
00000200: af9d 3cbd 6171 4b3d 515b 173e 5202 f43d
00000210: 44a2 263d e8dc 31bc 45bc 17be 5116 4abe
00000220: 0fcd 3cbd 3b48 10bd f7ee 13be 4366 5f3d
00000230: 4441 f43d 4125 103d 8e29 14bd 51f0 21ba
00000240: 5850 e73d 04bb e8bc dbda f7bd 2bad bfbd
00000250: 52c6 a8bd ad23 15bd 799b a7bd b458 af3d
00000260: c5ec 803c 95aa a73d 390e 44bd 9bcd 2e3d
00000270: 9b8b 033e 57ca b9bd 423c 6bbd 0c3c 90bb
00000280: 06e5 73bc 627b 07be 5de4 68bd d06e 6a3d
00000290: 9b47 e33c 5c0f 2b3d aabd 1f3e b172 73bd
000002a0: 8096 8dbd 7a83 053e 02ff 073e 93cb 813d
000002b0: b04e b53b b686 963d add5 5a3d ed8c b1bd
000002c0: 76e2 af3d f17c 813d 743b a53d bc53 0ebe
000002d0: fc87 03bc c0fa 9e3d 108f 333d d345 e5bd
000002e0: 54fd 273e 9c15 0fbd 8ba9 883d 83cd 233e
000002f0: 0897 3dbd 9fc0 bf3d 7e7b f9bd 1550 60bc
00000300: f649 94bd 798e fc3d 944f 5f3d 76f5 3ebd
00000310: 4491 1d3d 4d9f 23bd 323b 2b3e 28bd a0bd
00000320: 5df8 cebd ccb2 043d 0d0d ecbd 65d8 4dbd
00000330: a625 d13d 6333 2dbd 3f66 cabd 6d4f bd3d
00000340: 9249 6b3d e29c afbc 0bce bcbd 09d3 4ebd
00000350: f62e 9cbd 45d2 24bd 3e90 36bd 1f17 3a3d
00000360: a249 a13d 505e 58bd d24c 9dbd 4fcb 6dbd
00000370: dd20 983d 24a2 1cbd 37c6 973c aa21 253e
00000380: d092 873d a66b 0bbb a802 15bd 35e9 8fbd
00000390: 6732 19bd 38b9 3fbd 0153 3ebc c2b6 ceba
000003a0: ffff a0bc 312a da3d 6a19 91bd afa9 3bbe
000003b0: 165e bc3d 6a33 bd3d de9d 563d 9586 58bc
000003c0: 65c2 063d bdd0 ea3d f5a2 473c 3c5f e13d
000003d0: afc7 02be f399 02be a94a 7fbd ab29 903d
000003e0: f3fe fb3d fe17 183e 38ea 06be 4e9e ab3d
000003f0: 77f6 ce3c 73cb aebd 13bf c33d e62d db3d

weight f4 [4, 64]
-0.19316415 0.3357142 0.2719253 -0.22469828 0.13100895 -0.2982893 -0.32108778 -0.17612979
-0.33477905 -0.21522085 0.29152253 0.29220426 -0.13040555 -0.14738008 -0.22407141 -0.35254508
-0.2371807 0.19733523 0.22533068 0.2550882 0.29109588 -0.29818577 0.16967289 0.33564287
-0.35603032 -0.23651579 0.32988185 -0.34766936 -0.22254753 0.26418775 0.31942973 -0.42398652
-0.1660371 -0.2617053 -0.36138692 -0.19366789 0.16895562 -0.1871412 0.32661828 -0.2956414
-0.33730137 0.35230494 -0.31360146 0.223288 0.16008838 -0.31795657 -0.15660201 0.3265224
-0.14880607 -0.25150833 0.20208813 0.19893216 0.3235954 0.27927345 0.29538247 0.23208842
-0.3559053 -0.2488095 0.26714694 -0.25418103 0.14738354 -0.2921485 0.34109026 -0.315457
-0.3182901 0.18947971 0.19200806 -0.17659143 0.31168488 -0.17403845 -0.330295 -0.26850054
-0.30306166 -0.21752977 0.15449405 0.29843086 -0.31454962 -0.36102158 -0.30293804 -0.16618368
-0.18756616 0.19532777 0.29462463 0.30175674 0.32504714 -0.25472146 0.20791332 0.31117997
-0.22564346 -0.34044677 0.33853424 -0.2993934 -0.15780193 0.19924274 0.22027606 -0.47455847
-0.22388312 -0.28322935 -0.3208116 -0.26075917 0.30082905 -0.2262772 0.24485126 -0.15174852
-0.25528124 0.44069535 -0.24642614 0.13759637 0.34609458 -0.19684654 -0.28449714 0.15571465
-0.35143024 -0.30089343 0.22349524 0.258438 0.18663166 0.18455507 0.24338797 0.33963212
-0.24702388 -0.28079963 0.14396344 -0.23418942 0.29266593 -0.19363397 0.220321 -0.36686206
-0.28842124 0.25098792 0.3112891 -0.06245497 0.29205403 -0.3351911 -0.22523114 -0.3177566
-0.27008912 -0.33250237 0.23426303 0.21807851 -0.2694258 -0.23904714 -0.26531875 -0.28363156
-0.28109458 0.2782213 0.32785884 0.2757047 0.1453819 -0.19183342 0.34041214 0.32945818
-0.232441 -0.29432657 0.09710008 -0.14070947 -0.290682 0.2798673 0.19896795 -0.28639054
-0.04070356 -0.22527997 -0.15646757 -0.23922391 0.29168022 -0.3091435 0.2181431 -0.32861805
-0.29137123 0.2966814 -0.22774763 0.2782158 0.14399636 -0.31431082 -0.3156434 0.16274431
-0.12932207 -0.21903655 0.19915111 0.2630364 0.25275972 0.22757363 0.3121929 0.1956395
-0.1753849 -0.3283197 0.23607294 -0.23256786 0.28680816 -0.33945987 0.24751379 -0.30364257
-0.2965641 0.20620453 0.31896442 -0.20775554 0.31878054 -0.15843084 -0.12529041 -0.35443008
-0.18222019 -0.14343351 0.30829722 0.20480573 -0.23077558 -0.3032946 -0.2631207 -0.3065462
-0.29618272 0.2929726 0.28243056 0.25015777 0.13885823 -0.29926646 0.3220324 0.22454178
-0.28666496 -0.291599 0.31925035 -0.12962411 -0.3209087 0.18410236 0.29628935 -0.29994053
-0.14135787 -0.284439 -0.14291607 -0.20855363 0.26637885 -0.35245323 0.1157535 -0.3042609
-0.18674171 0.378822 -0.21789628 0.1365449 0.28617916 -0.21363918 -0.2723168 0.262636
-0.28803906 -0.35226 0.18809299 0.3054365 0.1910666 0.27719057 0.26304477 0.1835384
-0.2813328 -0.28729692 0.09515131 -0.3140513 0.26705423 -0.33523703 0.20315069 -0.32674313
00000000: d3cc 45be bbe2 ab3e cb39 8b3e 4e17 66be
00000010: 3627 063e 60b9 98be 9e65 a4be 5e5b 34be
00000020: 2968 abbe db62 5cbe 7142 953e cc9b 953e
00000030: 0889 05be ceea 16be fa72 65be ca80 b4be
00000040: 7fdf 72be 3f12 4a3e 16bd 663e ec9a 823e
00000050: 850a 953e ceab 98be bbbe 2d3e 62d9 ab3e
00000060: 9b49 b6be 3231 72be 46e6 a83e b801 b2be
00000070: 80e3 63be 9e43 873e 4b8c a33e c314 d9be
00000080: a105 2abe 3dfe 85be b507 b9be e050 46be
00000090: b402 2d3e f1a1 3fbe 833a a73e 4f5e 97be
000000a0: c4b2 acbe 5061 b43e 5f90 a0be 9ca5 643e
000000b0: 35ee 233e 34cb a2be 475c 20be f22d a73e
000000c0: 9e60 18be b3c5 80be 31f0 4e3e dfb4 4b3e
000000d0: 4cae a53e eefc 8e3e 5f3c 973e 96a8 6d3e
000000e0: 3839 b6be ebc7 7ebe 7cc7 883e 0424 82be
000000f0: b6eb 163e 7d94 95be 62a3 ae3e 9483 a1be
00000100: ecf6 a2be f806 423e c39d 443e 62d4 34be
00000110: 2995 9f3e 2337 32be 6d1c a9be e778 89be
00000120: e62a 9bbe 20c0 5ebe b033 1e3e eecb 983e
00000130: a60c a1be d2d7 b8be b21a 9bbe 0e2c 2abe
00000140: 5811 40be 0104 483e 0ad9 963e dc7f 9a3e
00000150: 946c a63e da6a 82be 3be7 543e fb52 9f3e
00000160: 140f 67be 0a4f aebe 5c54 ad3e 174a 99be
00000170: d496 21be 4a06 4c3e 0c90 613e 54f9 f2be
00000180: 9e41 65be 7003 91be 6b41 a4be 3a82 85be
00000190: 4406 9a3e 36b5 67be 4aba 7a3e f763 1bbe
000001a0: 39b4 82be d2a2 e13e 2257 7cbe 10e6 0c3e
000001b0: 4f33 b13e 2492 49be 9ca9 91be a973 1f3e
000001c0: aaee b3be b40e 9abe f0db 643e fc51 843e
000001d0: 5f1c 3f3e 01fc 3c3e b23a 793e 43e4 ad3e
000001e0: d4f3 7cbe f8c4 8fbe 276b 133e 5acf 6fbe
000001f0: 4fd8 953e fc47 46be d49b 613e 58d5 bbbe
00000200: f3ab 93be 7d81 803e 4961 9f3e c8d0 7fbd
00000210: 1b88 953e 2b9e abbe fea2 66be feb0 a2be
00000220: 1f49 8abe c03d aabe a6e2 6f3e f94f 5f3e
00000230: 2ef2 89be c6c8 74be dcd7 87be 2838 91be
00000240: a1eb 8fbe 0673 8e3e 1ddd a73e 2b29 8d3e
00000250: fede 143e fb6f 44be 804a ae3e beae a83e
00000260: 0305 6ebe f9b1 96be 68dc c63d 2516 10be
00000270: 45d4 94be c44a 8f3e 41be 4b3e c8a1 92be
00000280: c7b8 26bd cbaf 66be 0939 20be 1df7 74be
00000290: 1c57 953e 0f48 9ebe e860 5f3e a040 a8be
000002a0: 9c2e 95be a0e6 973e ad36 69be 4d72 8e3e
000002b0: c873 133e 59ed a0be 039c a1be 72a6 263e
000002c0: 016d 04be 1e4b 60be 45ee 4b3e b5ac 863e
000002d0: b969 813e 1009 693e bfd7 9f3e b955 483e
000002e0: 1998 33be 8519 a8be 1bbd 713e 4526 6ebe
000002f0: 85d8 923e afcd adbe 4174 7d3e 0a77 9bbe
00000300: 40d7 97be 4827 533e 4e4f a33e debd 54be
00000310: 3437 a33e b23b 22be 214c 00be dc77 b5be
00000320: ee97 3abe 3ce0 12be 22d9 9d3e 98b8 513e
00000330: 6f50 6cbe 6e49 9bbe c2b7 86be a0f3 9cbe
00000340: 43a5 97be 8100 963e bd9a 903e ae14 803e
00000350: da30 0e3e 7439 99be 6ee1 a43e 48ee 653e
00000360: c0c5 92be 774c 95be c874 a33e 2fbc 04be
00000370: 254e a4be 5485 3c3e 3db3 973e ce91 99be
00000380: 1ec0 10be fda1 91be 9758 12be 158f 55be
00000390: cf62 883e c074 b4be 2c10 ed3d 16c8 9bbe
000003a0: 3839 3fbe f5f4 c13e 3420 5fbe 6dd2 0b3e
000003b0: 1386 923e 3bc4 5abe 1c6d 8bbe 3a78 863e
000003c0: db79 93be 6c5b b4be 739b 403e 2c62 9c3e
000003d0: f6a6 433e eceb 8d3e cead 863e 7ef1 3b3e
000003e0: da0a 90be 9518 93be b1de c23d 55cb a0be
000003f0: 55bb 883e 30a4 abbe bc06 503e e04a a7be

bias f4 [4]
0.2561272 0.32448164 0.29329693 0.30463892
00000000: 1b23 833e 7522 a63e 042b 963e a2f9 9b3e
