saved_weights.pt (torch, 76231 bytes, 6 tensors)

weight_ih_l0 f4 [256, 4]
0	0x3dd0d59a	0.10196991
1	0x3cd83f09	0.026397245
2	0x3c071042	0.008243622
3	0xbc26640b	-0.010155688
4	0x3bf4fd04	0.007476451
5	0xbdad2c91	-0.08455766
6	0xbe13bcc1	-0.14427473
7	0x3a1b4cd2	0.0005924228
8	0x3d866a0a	0.06563194
9	0x3e3d3dd1	0.18480612
10	0x3e2258a3	0.15854125
11	0x3cd1b7ac	0.025600277
12	0x3d00c07d	0.03143357
13	0xbd2e71bf	-0.042588945
14	0xbdb070e6	-0.08615284
15	0x3d5eefe1	0.054427985
16	0x3cb148d5	0.021641174
17	0xbd99b9bd	-0.0750613
18	0xbde70b07	-0.112814
19	0x3d96debd	0.07366703
20	0x3d9b3c1c	0.07579824
21	0x3d524581	0.051335815
22	0xbd8fe11d	-0.07025359
23	0x3d911dc8	0.070857584
24	0x3c8d4f21	0.017249646
25	0x3e2ba289	0.16761221
26	0x3c5b335d	0.013378945
27	0x3d8b6b3a	0.06807561
28	0x3dd1b2c6	0.102391765
29	0xbbad5c53	-0.005290547
30	0xbd2a401f	-0.041565057
31	0x3d880ded	0.06643281
32	0x3db9f101	0.09079171
33	0x3c534438	0.012894683
34	0xbcf4d90e	-0.029888656
35	0x3dbc9a8c	0.09209165
36	0x3e16ff9f	0.14745949
37	0x3e210283	0.15723614
38	0xbd2c10eb	-0.04200832
39	0x3ca3570a	0.019938964
40	0x3dd5f5c0	0.10447264
41	0x3d186eb2	0.037214942
42	0xbae543d8	-0.0017491532
43	0xbd4854cc	-0.048908994
44	0x3d3f0edc	0.04664503
45	0xbc29db2c	-0.010367196
46	0x3d6715a4	0.056417122
47	0x3d903370	0.07041061
48	0x3d4641d3	0.04840262
49	0x3dfd7b37	0.12377017
50	0xbb24d936	-0.0025153882
51	0x3d9f252b	0.07770761
52	0xbe51d5ab	-0.20491664
53	0xbc416c32	-0.011805581
54	0xbe16e379	-0.14735211
55	0xbd85c6d5	-0.06532065
56	0xbdf254da	-0.118325904
57	0xbdb0e2f1	-0.08637036
58	0x3ac79cea	0.0015229259
59	0x3ca66e07	0.020316137
60	0x3cb4886a	0.022037704
61	0x3e1fad7b	0.15593521
62	0x3daf67a9	0.085646935
63	0x3acfa5ae	0.0015842223
64	0x3ddc21c1	0.107486255
65	0x3d88534e	0.06656514
66	0xbd44fdd5	-0.048093636
67	0x3d830154	0.06396738
68	0x3ac66675	0.0015136736
69	0xbda7bf53	-0.08190789
70	0xbd76d2a8	-0.06025949
71	0x3e030bc7	0.12797461
72	0xbc982981	-0.018574478
73	0x3d146cc2	0.036236532
74	0x3e197ea4	0.14989716
75	0x3e0849b2	0.13309363
76	0x3d863450	0.065529466
77	0x3e54705e	0.2074599
78	0x3d3630e3	0.044480216
79	0x3dd55885	0.104172744
80	0x3d5f3f4a	0.054503717
81	0xbd7269ee	-0.059183054
82	0x3e1bdcd4	0.15220958
83	0x3d92da28	0.07170516
84	0xbdd33661	-0.10313106
85	0xbe0ec9a8	-0.13944113
86	0xbde8c6ad	-0.113660194
87	0xbe4c0b4d	-0.19926186
88	0xbd5ee887	-0.054420974
89	0x3dc8386a	0.09776385
90	0x3dba7897	0.09105032
91	0x3df0f801	0.11766053
92	0x3dd69313	0.10477271
93	0x3d40b81c	0.04705058
94	0x3e18bfca	0.14916912
95	0x3e270b91	0.16313006
96	0xbd59b423	-0.053150307
97	0xbcff5b36	-0.031171422
98	0x3e437e6b	0.19091193
99	0x3de34dab	0.11098798
100	0xbd34197f	-0.043969627
101	0x3b019a47	0.0019775794
102	0x3db7de8e	0.08977996
103	0x3e095467	0.13411103
104	0xbce42a25	-0.027852127
105	0xbd86428a	-0.0655566
106	0xbd921313	-0.07132544
107	0x3d3e0409	0.046390567
108	0xbc5fc31a	-0.013657356
109	0x3e2a3bdb	0.16624396
110	0x3c01c301	0.007920028
111	0x3de86aea	0.11348517
112	0x3dfbf2e7	0.12302189
113	0xbc225f60	-0.0099104345
114	0x3d4533b0	0.048144996
115	0x3ca73f5e	0.020415958
116	0x3d193181	0.037400726
117	0xbd13a93e	-0.036050074
118	0xbd7cd45d	-0.061725963
119	0x3e0c9da5	0.13732012
120	0xbd725021	-0.059158448
121	0xbdcd753c	-0.10032126
122	0xbe188b0b	-0.1489679
123	0xbd2501aa	-0.04028479
124	0xbe0d589f	-0.13803338
125	0xbd98ee6b	-0.074673496
126	0xbda1426e	-0.078739986
127	0xbccbf0ca	-0.02489509
128	0x3ce43f71	0.027862282
129	0xbd23d9f0	-0.040002763
130	0x3daeaf7f	0.08529567
131	0xbdf324c3	-0.11872246
132	0x3e18fe9c	0.14940876
133	0xbd9fb6b9	-0.077985235
134	0x3d2d3b3a	0.04229281
135	0x3d4d5ee8	0.050139338
136	0x3d8b0493	0.06787982
137	0x3d8affd1	0.06787074
138	0x3e15d3e4	0.14631611
139	0x3e25deb3	0.16198234
140	0xbe1877a5	-0.14889391
141	0xbe211c1f	-0.15733384
142	0xbd8ee703	-0.06977656
143	0x3c52529b	0.0128370775
144	0x3db59b90	0.08867562
145	0x3e0cc482	0.13746837
146	0x3dcd4918	0.10023707
147	0x3c694dbd	0.014239726
148	0x3d1ce9c6	0.03830888
149	0x3e0f77f9	0.1401061
150	0x3e11db19	0.14243735
151	0x3dde0703	0.10841181
152	0x3d8e1e3b	0.0693936
153	0x3ca0efbb	0.019645562
154	0xbd2ab6e4	-0.041678324
155	0x3dd3e8a7	0.10347109
156	0x3dad4400	0.084602356
157	0x3bc7fb79	0.006102976
158	0x3dbebcd6	0.09313361
159	0x3d2abc06	0.04168322
160	0xbd2e7cd1	-0.042599503
161	0xbb8523f8	-0.0040631257
162	0x3d653e3d	0.05596756
163	0xbe17fc04	-0.1484223
164	0xbd7ad07d	-0.061233986
165	0x3c207174	0.009792674
166	0x3d849fef	0.064758174
167	0x3d1b8e9d	0.037977803
168	0x3d772d37	0.060345855
169	0xbd35fe67	-0.04443207
170	0xbcfdf4d3	-0.03100053
171	0x3e174ee7	0.14776193
172	0xbd298f8a	-0.041396655
173	0x3ccce091	0.025009425
174	0xbd1c642a	-0.03818146
175	0x3e289b43	0.16465478
176	0x3e3fd742	0.18734458
177	0x3c97348e	0.018457677
178	0x3e19a4ff	0.15004347
179	0xbc09035d	-0.008362618
180	0xbc8c7c4e	-0.017149117
181	0xbd9a9970	-0.07548797
182	0xbc25a9da	-0.010111297
183	0x3daaa95d	0.08333085
184	0xbdc6e04f	-0.09710752
185	0x3d038c68	0.032116324
186	0x3db024e0	0.08600783
187	0x3d261749	0.04054955
188	0x3c873af6	0.016507607
189	0xbc5755a7	-0.01314298
190	0x3e047e35	0.12938769
191	0x3defbb75	0.117056765
192	0x3e074a15	0.13211854
193	0xbc6fe218	-0.014641307
194	0x3c70490b	0.014665852
195	0x3d5c3a5d	0.053766597
196	0x3d10e5a3	0.03537525
197	0x3dc3d53f	0.09562158
198	0x3e05f6ae	0.13082382
199	0x3e1512c5	0.14557941
200	0xbc5ed8f9	-0.013601535
201	0xbda30b1e	-0.07961105
202	0xbd00af8e	-0.031417422
203	0xbd18de23	-0.03732122
204	0xbe2fd977	-0.171728
205	0xbc0f0557	-0.0087293
206	0xbda3461f	-0.07972359
207	0x3d237074	0.039902166
208	0x3b9e22fc	0.004825948
209	0xbdaec89a	-0.085343555
210	0x3df9a58b	0.12189778
211	0xbc8e4220	-0.017365515
212	0x3d73fd56	0.05956777
213	0x3dcb01cd	0.09912453
214	0x3c6d9188	0.014500029
215	0xbd9f90c2	-0.07791282
216	0x3c11cf4e	0.008899523
217	0x3df2befd	0.118528344
218	0x3e01c9c6	0.12674627
219	0xbd9c4c50	-0.07631743
220	0x3d81eb33	0.06343689
221	0xbdb7e8ac	-0.089799255
222	0x3d467b57	0.04845747
223	0xbe2ae463	-0.16688685
224	0xbd4a1e3c	-0.04934524
225	0xbe6367ce	-0.22207567
226	0xbd9d753d	-0.07688377
227	0xbe60bd67	-0.21947251
228	0xbcbd368b	-0.023097297
229	0x3dac9cfa	0.084283784
230	0xbcb6f282	-0.022332434
231	0x3e243616	0.16036257
232	0x3db87d77	0.090083055
233	0xbcc88b91	-0.024480613
234	0x3e0bfd3b	0.13670819
235	0xbc8fc2f5	-0.017549017
236	0xbd193649	-0.037405286
237	0x3d5d746c	0.054066107
238	0x3d9a6048	0.075378954
239	0x3e19f6ad	0.15035506
240	0x3e2c8be6	0.16850242
241	0x3daa624d	0.08319531
242	0x3e0b072a	0.13576952
243	0x3d3aea90	0.045633852
244	0x3e29eca5	0.16594179
245	0x3cc3946d	0.023874486
246	0x3e30bd18	0.17259634
247	0x3e1b8cac	0.15190381
248	0xbc520d2e	-0.012820525
249	0x3e013e75	0.12621482
250	0x3db85398	0.09000319
251	0x3d9d5f82	0.07684232
252	0xbdc3c338	-0.095587194
253	0xbe245eca	-0.16051784
254	0xbe305299	-0.17219009
255	0x3b97480f	0.0046167444

weight_hh_l0 f4 [256, 64]
0	0xbd5fe24d	-0.054659177
1	0xbdb2ae24	-0.08724621
2	0xbc875527	-0.016520096
3	0xbdcd6f35	-0.10030977
4	0x3dc1e3fc	0.09467313
5	0x3c5472b8	0.012966804
6	0x3df08f12	0.117460385
7	0x3cc865e9	0.024462657
8	0x3dac122c	0.084019035
9	0xbd882ed8	-0.0664956
10	0x3cd03aa3	0.025418585
11	0x3e124536	0.14284214
12	0xbce3858b	-0.02777364
13	0xbce431e6	-0.027855825
14	0x3bd75c80	0.006572306
15	0xbce501f5	-0.027955035
16	0xbd8a7a70	-0.06761634
17	0x3db9cb94	0.090720326
18	0x3d64d334	0.05586548
19	0x3d4bb427	0.049732354
20	0x3e0e1a27	0.13877164
21	0xbdafa2d1	-0.08575977
22	0x3d8c77d3	0.06858792
23	0xbd86dc73	-0.06585016
24	0x3d62a092	0.055328913
25	0xbe17348f	-0.14766143
26	0xbb27fe1a	-0.0025633634
27	0x3dc25459	0.09488744
28	0xbd32e615	-0.043676455
29	0xbc609a0b	-0.013708602
30	0xbcc54a93	-0.024083411
31	0x3d5f41bc	0.05450605
32	0x3cd7505c	0.026283436
33	0xbd9235a0	-0.071391344
34	0x3d3e5c22	0.046474583
35	0x3d55c074	0.05218549
36	0xbd907d90	-0.07055199
37	0xbe0bc086	-0.1364766
38	0xbb66d016	-0.0035219244
39	0xbdc20540	-0.094736576
40	0x3dd284ae	0.10279213
41	0x3d8f43b7	0.069953375
42	0xbe1a3e9c	-0.15062946
43	0x3d9a7701	0.075422294
44	0x3dcb4464	0.09925154
45	0x3cf843d1	0.030305775
46	0x3d66046f	0.056156572
47	0x3daa9663	0.08329465
48	0xbe170f04	-0.14751822
49	0xbc48c6a1	-0.012254388
50	0x3d131928	0.035912663
51	0x3d826f02	0.06368829
52	0xbdd031c1	-0.1016574
53	0xbdc6857e	-0.0969343
54	0xbd9b5234	-0.075840384
55	0x3db297aa	0.08720334
56	0x3dcf1906	0.10112195
57	0x3be4fca2	0.006988124
58	0x3c974706	0.018466484
59	0xbe2b6784	-0.16738707
60	0x3cc52123	0.024063652
61	0x3e1dd788	0.1541425
62	0x3ae9a8be	0.0017826778
63	0x3d984da5	0.074366845
64	0xbd60494f	-0.054757413
65	0x3dea2f68	0.11434823
66	0x3df15f35	0.117857374
67	0x3e09c62e	0.13454506
68	0xbd16766b	-0.036734026
69	0x3d69de7b	0.05709694
70	0xbda952f8	-0.08267778
71	0xbdcf4b99	-0.10121841
72	0x3d25290b	0.040322345
73	0x3d2b43bf	0.041812655
74	0xbce4b167	-0.027916623
75	0x3e102a3b	0.1407861
76	0x3cbf2401	0.023332598
77	0x3de6f3d3	0.112769745
78	0xbde2ca90	-0.11073792
79	0x3d90c7e8	0.07069379
80	0xbe103d13	-0.14085798
81	0xbc4bcd0a	-0.012439022
82	0xbba9795f	-0.0051719393
83	0xbcdbf4b9	-0.026850091
84	0x3ce8eeef	0.028434245
85	0xbcc93528	-0.02456148
86	0xbde14f8c	-0.110015005
87	0xbc39ac0f	-0.011332526
88	0xbdd60c9b	-0.10451623
89	0xbe10866d	-0.1411378
90	0xbdcde939	-0.10054249
91	0x3cdba702	0.026813034
92	0x3c576df2	0.013148772
93	0x3ce6d3cc	0.028177164
94	0x3da3a7b2	0.0799097
95	0x3ca994ca	0.020700831
96	0xbd4a232b	-0.049349945
97	0x3d0edd7c	0.034879193
98	0xbdac9c34	-0.08428231
99	0xbd3c85ba	-0.04602597
100	0xbd0aa51f	-0.033848878
101	0x3ca8421f	0.020539341
102	0x3d052afb	0.032511692
103	0xbdb13ca3	-0.08654144
104	0x3c2209d5	0.009890039
105	0xbddd291f	-0.10798859
106	0xbd43173f	-0.04762959
107	0xbd3f6cae	-0.046734504
108	0xbd8a0b58	-0.06740445
109	0xbe067007	-0.13128673
110	0x3dbe5dc7	0.0929523
111	0x3d60ad54	0.0548528
112	0x3acd1905	0.0015647715
113	0x3c591164	0.013248775
114	0x3de066fc	0.10957143
115	0x3ad555aa	0.001627614
116	0xbdea959f	-0.11454319
117	0x3ca061f2	0.019577954
118	0xbda4afbd	-0.08041332
119	0x3cd37d92	0.025816713
120	0x3d039254	0.03212197
121	0xbda82816	-0.08210771
122	0x3dcb148e	0.0991603
123	0x3dd43064	0.10360792
124	0xbcc9c53b	-0.02463018
125	0xbd918165	-0.07104758
126	0x3db9031a	0.09033795
127	0x3d540dcd	0.051770974
128	0x3dce8ec6	0.100858256
129	0xbe028054	-0.12744266
130	0xbdcdeb05	-0.10054592
131	0x3cb9012a	0.022583563
132	0xbe1687d5	-0.14700253
133	0x3d9c47b0	0.07630861
134	0x3ced1546	0.028940808
135	0x3dd0b7f8	0.10191339
136	0x3d1416c6	0.03615453
137	0x3db696a3	0.089154504
138	0x3d976867	0.0739296
139	0xbdfc2024	-0.12310818
140	0xbdec6603	-0.11542895
141	0x3d5eead0	0.054423153
142	0x3df11be5	0.117728986
143	0xbcbff067	-0.023430062
144	0xbdaa0edd	-0.08303616
145	0xbd1e3ed3	-0.038634133
146	0xbdd93af2	-0.10606946
147	0x3e0680bd	0.13135047
148	0xbd348334	-0.044070438
149	0xbdad02dd	-0.08447812
150	0x3de02fc8	0.109466136
151	0xbda77f9f	-0.08178639
152	0x3d13832a	0.03601376
153	0x3d47e981	0.04880667
154	0x3d0a0195	0.033692915
155	0xbd42123a	-0.047380663
156	0x3dc3c382	0.095587745
157	0xbda98e24	-0.08279064
158	0x3de1d268	0.1102646
159	0xbde206ce	-0.11036454
160	0x3de8b351	0.11362327
161	0xbdb5fab6	-0.0888571
162	0xbdbc9a52	-0.09209122
163	0xbd38262b	-0.044958275
164	0x3d7dc64e	0.061956696
165	0x3df9d8d9	0.121995635
166	0xbbba6f90	-0.005689569
167	0xbde7556f	-0.11295592
168	0x3d3e8120	0.046509862
169	0x3b80dd8f	0.003932662
170	0x3d4dc0ac	0.050232574
171	0xbb9f89aa	-0.0048687058
172	0x3c81e358	0.015855476
173	0x3da2756a	0.07932551
174	0x3d2c7016	0.04209908
175	0xbd7f92ee	-0.062395982
176	0x3cd3ec0a	0.025869388
177	0xbd43d1fc	-0.04780768
178	0x3d72a475	0.05923887
179	0x3c8893de	0.016672071
180	0xbdae4c89	-0.08510692
181	0xbdb31f42	-0.08746196
182	0xbdec9a9e	-0.115529284
183	0x3d0cb5e5	0.034353156
184	0xbd816808	-0.063186705
185	0xbd2e6cb8	-0.04258415
186	0x3d85b5c3	0.06528809
187	0x3d9c45bc	0.07630488
188	0x3d7f9c84	0.062405124
189	0x3c096a52	0.008387165
190	0xbe00994b	-0.12558477
191	0x3d9c4bc9	0.07631642
192	0xbd1ab132	-0.037766643
193	0xbc5d4839	-0.013505989
194	0xbd16443c	-0.036686167
195	0x3ddec21e	0.10876869
196	0xbda83705	-0.08213619
197	0x3c23ca03	0.009996894
198	0x3d89c7ee	0.06727587
199	0x3d1ddab6	0.038538657
200	0x3df142c2	0.11780311
201	0x3e39dd67	0.18150865
202	0x3d646457	0.055759754
203	0x3ca23a8e	0.019803312
204	0xbdee77c2	-0.11643936
205	0x3d18dd14	0.03732021
206	0x3bbe3015	0.0058040717
207	0xbc41a017	-0.011817954
208	0xbdd4171d	-0.10355971
209	0x3e1b6cde	0.15178248
210	0x3e25d2ae	0.16193649
211	0x3c269a39	0.0101686055
212	0xbc91176c	-0.017711364
213	0x3dc59c50	0.09648955
214	0xbdae151c	-0.0850012
215	0x3da6a2a2	0.081364885
216	0x3c7ae55c	0.015313473
217	0xbe0b3dad	-0.13597746
218	0x3ded2198	0.11578673
219	0xbd7b73b5	-0.061389644
220	0xbcc783bd	-0.02435481
221	0xbd6d08ac	-0.0578696
222	0x3c171db7	0.009223393
223	0x3e13b722	0.14425328
224	0x3cc2d0a8	0.023781136
225	0x3c3d82e5	0.011566852
226	0x3d59b669	0.053152476
227	0x3c83dd74	0.016096808
228	0x3e0ab3c3	0.13545136
229	0xbd79c7d3	-0.060981583
230	0xbcb56f1b	-0.022147706
231	0x3abacbbd	0.0014251393
232	0xbd26a532	-0.040684886
233	0xbc86725a	-0.016411949
234	0xbd4e0713	-0.050299715
235	0x3e124ada	0.14286366
236	0xbe2c045d	-0.1679854
237	0xbdee1563	-0.11625173
238	0x3dcdd316	0.10050027
239	0x3d9154b0	0.07096231
240	0xbda039ad	-0.07823501
241	0xbc4b4b8f	-0.012408151
242	0x3dd5eecc	0.104459375
243	0xbde79312	-0.11307348
244	0x3da4d855	0.080490746
245	0x3d429ab0	0.047510803
246	0x3d1f99a0	0.038964868
247	0x3d18076a	0.037116446
248	0xbcfc5242	-0.030800942
249	0xbd9d1558	-0.076700866
250	0xbd53ec44	-0.051738992
251	0x3d91a2ed	0.07111154
252	0x3e02a839	0.12759484
253	0xbd9f67d4	-0.077834755
254	0xbd96ab54	-0.07356897
255	0x3cf220be	0.029556628

bias_ih_l0 f4 [256]
0	0x3d0fe602	0.035131462
1	0xbdd9b081	-0.106293686
2	0x3dd227e0	0.10261512
3	0xbe22770a	-0.15865722
4	0x3c0ccf3a	0.008594329
5	0xbdcf59e5	-0.10124568
6	0x3d44df58	0.04806456
7	0x3c9a9065	0.01886768
8	0xbc7ab623	-0.015302214
9	0xbe07cd84	-0.13261992
10	0x3d987a85	0.07445244
11	0x3db1b8f5	0.08677856
12	0x3dbd86f2	0.092542544
13	0x3da6e01a	0.08148213
14	0xba4f4b16	-0.0007907612
15	0xbd2efbcc	-0.0427206
16	0x3c1e2654	0.009652693
17	0xbd514114	-0.051087454
18	0xbe06be72	-0.13158587
19	0xbc8eb35e	-0.017419513
20	0x3dd5c71d	0.104383685
21	0xbd638e66	-0.055555724
22	0xbe0c231a	-0.13685265
23	0x3d71d209	0.059038196
24	0xbd0e237c	-0.03470181
25	0x3c38a945	0.011270826
26	0xbdd21983	-0.10258772
27	0xbd8800e1	-0.06640793
28	0x3daef558	0.08542889
29	0x3d000109	0.031250987
30	0xbde45100	-0.11148262
31	0xbd841bc0	-0.064506054
32	0xbdd58995	-0.10426632
33	0x3d0e759c	0.03478013
34	0x3df11c47	0.117729716
35	0xbbcf1bb8	-0.006320443
36	0xbd8a4b52	-0.067526475
37	0xbda0ec1b	-0.078575335
38	0xbd0a603c	-0.033783183
39	0xbdb77884	-0.089585334
40	0x38a9bb08	8.093385e-05
41	0x3da020e5	0.07818774
42	0xbd8f4f8d	-0.06997595
43	0xbd1b9880	-0.037987232
44	0xbde9c346	-0.114141986
45	0x3d8da50a	0.06916244
46	0x3be6c4cb	0.0070425025
47	0x3c40e0a3	0.011772308
48	0x3c922dbb	0.017844072
49	0xbb372bd1	-0.00279497
50	0xbdba13cb	-0.090858065
51	0x3dac634a	0.084173754
52	0xbdc9ad60	-0.09847522
53	0x3d6944b6	0.056950293
54	0xbcbcc2b8	-0.023042068
55	0xbb5d2e46	-0.0033749505
56	0xbe7fc704	-0.24978262
57	0xbdb00289	-0.085942335
58	0xbe010bc3	-0.12602143
59	0xbdbe3184	-0.09286788
60	0x3d5f5ef1	0.054533903
61	0xbc0520e0	-0.008125514
62	0x3bb0bf49	0.0053938967
63	0xbd87373b	-0.06602331
64	0x3bb35bf5	0.0054736086
65	0xbd13629a	-0.035982706
66	0x3d119311	0.035540644
67	0x3d7da8b3	0.061928462
68	0xbe06fa53	-0.13181429
69	0x3d649f14	0.05581577
70	0x3d8553ae	0.06510101
71	0xbe0022c1	-0.12513258
72	0x3d89c712	0.06727423
73	0xbdc7123f	-0.09720277
74	0xbdcd0d5a	-0.10012312
75	0xbd5a6336	-0.05331727
76	0x3ce9129a	0.028451253
77	0x3d88bb6a	0.066763714
78	0x3c73030a	0.014832268
79	0xbdf97e9b	-0.12182351
80	0xbc2e237b	-0.010628576
81	0x3d2c21cd	0.042024422
82	0xbd9a73b8	-0.07541603
83	0x3dd466ba	0.10371156
84	0xbd5a118f	-0.0532394
85	0xbe3a47d8	-0.18191469
86	0x3dd33e51	0.1031462
87	0x3d185ffb	0.03720091
88	0x3d549bba	0.051906325
89	0xbdaa4242	-0.08313419
90	0x3c25095c	0.010073032
91	0x3e023988	0.12717259
92	0x3dd84a44	0.1056104
93	0xbc6169a0	-0.013758093
94	0xbdd3a1ec	-0.103336185
95	0xbdc929f1	-0.09822453
96	0x3d62a204	0.05533029
97	0xbdd2d7bf	-0.102950566
98	0x3d080057	0.03320345
99	0x3d0f141e	0.034931295
100	0xbd1725dd	-0.036901344
101	0x3d879892	0.06620897
102	0xbdfc789d	-0.12327693
103	0xbd6167b8	-0.055030555
104	0x3d44efb6	0.04808017
105	0xbdc24133	-0.09485092
106	0xbdf0111e	-0.11722015
107	0xbdf1f6db	-0.11814662
108	0x3d44b08c	0.04801993
109	0x3cbdb266	0.023156356
110	0xbca4c19c	-0.020111851
111	0xbca46c78	-0.020071253
112	0xbc3be45c	-0.011468019
113	0x3b3149c4	0.0027052024
114	0xbe04ce03	-0.12969212
115	0xbe27cea4	-0.16387421
116	0xbbc5b069	-0.0060329926
117	0x3d50c5e0	0.05096996
118	0xbc1a3a1c	-0.009413268
119	0x3db63154	0.08896127
120	0xbd22514c	-0.039628312
121	0xbd9a0a81	-0.07521535
122	0xbd0e70ec	-0.03477566
123	0x3dc8cbdf	0.0980451
124	0xb9aa6752	-0.00032501906
125	0x3d81ea8d	0.06343565
126	0xbda50347	-0.08057266
127	0xbe1582c3	-0.14600663
128	0xbdd11f4b	-0.10211047
129	0xbd33553e	-0.043782465
130	0xbd8a1346	-0.06741957
131	0xbdca9242	-0.09891178
132	0xbdea6cfa	-0.11446567
133	0xbe00e535	-0.12587436
134	0xbd9c4e9d	-0.07632182
135	0x3c5103f7	0.012757293
136	0xbda6a3ff	-0.081367485
137	0x3d8cde55	0.06878344
138	0x3d9ba6a9	0.07600147
139	0xbdae7d58	-0.08520001
140	0x3d817e27	0.0632289
141	0xbde55d86	-0.11199479
142	0x3d6d0753	0.057868313
143	0x3decdaee	0.11565195
144	0xbd53af60	-0.051680923
145	0xbccc1a65	-0.02491493
146	0xbd9f4cc9	-0.077783175
147	0x3d4bef7d	0.04978894
148	0xbdb6be1c	-0.08922979
149	0xbd69f451	-0.057117764
150	0x3d185c23	0.037197243
151	0xbe0131bd	-0.1261663
152	0x3d33c80f	0.043891963
153	0x3d7474a8	0.059681565
154	0x3d8b3eb9	0.06799073
155	0xbb3ca002	-0.0028781896
156	0x3d687ec6	0.056761526
157	0x3cb4e62e	0.022082414
158	0x3c8bb1a0	0.017052472
159	0xbd1a3de3	-0.037656676
160	0xbb0f90b6	-0.0021906323
161	0x3d8b0217	0.06787508
162	0xbd374f2f	-0.04475325
163	0xbd1620e0	-0.036652446
164	0xbd48ce44	-0.049024835
165	0xbc914cac	-0.017736755
166	0xbdf2bdfa	-0.118526414
167	0xbd46a182	-0.04849387
168	0x3bffcd48	0.007806454
169	0x3daf7e95	0.085690655
170	0x3bb923c3	0.005650015
171	0xba48dbf4	-0.000766217
172	0xbd149b49	-0.036280904
173	0x3d3310c1	0.04371715
174	0x3d27c144	0.040955797
175	0xbe05e5d4	-0.13075954
176	0x3dd29dff	0.102840416
177	0x3d8c0c8a	0.06838329
178	0x3c654ead	0.013995809
179	0x3d70e691	0.058813635
180	0xbcee3056	-0.029075783
181	0xbd066e5f	-0.0328201
182	0xbd367c1e	-0.04455196
183	0x3bf336eb	0.007422318
184	0xbd61da95	-0.055140097
185	0x3d91d829	0.071213074
186	0xbc89892d	-0.016789043
187	0x3cbee358	0.023301765
188	0x3d7e7303	0.062121402
189	0x3d5d0f77	0.053969827
190	0xbdfd7b07	-0.12376981
191	0x3cb70e30	0.022345632
192	0xbda3861c	-0.07984564
193	0x3d43ece1	0.047833327
194	0xbd8fbcc6	-0.070184276
195	0xbe2adfc7	-0.16686927
196	0xbe18247f	-0.14857672
197	0xbde39574	-0.1111249
198	0xbcf73657	-0.030177278
199	0x3dbaa8fb	0.09114262
200	0x3dfdfdbb	0.12401911
201	0x3c2f58e0	0.010702342
202	0xbd18d05f	-0.037308093
203	0x3ccf1e9a	0.025283147
204	0xbd4624fb	-0.04837511
205	0xbd80754a	-0.06272371
206	0xbd60ef61	-0.05491579
207	0xbe21e1c9	-0.15808786
208	0x3cd0d646	0.025492799
209	0xbdbe6734	-0.09297028
210	0xbd56b3b7	-0.052417483
211	0xbc869ef5	-0.016433218
212	0xbdf195f6	-0.11796181
213	0xbdd2339c	-0.1026375
214	0x3d93483e	0.071915135
215	0xbc93b42d	-0.01803025
216	0x3d39a7ed	0.045326162
217	0x3ddb36ad	0.10703788
218	0xbb8907b1	-0.004181825
219	0x3df4237e	0.11920832
220	0x3dd3a9b9	0.103351064
221	0xbe2995ff	-0.16561125
222	0xbe1d637a	-0.15369979
223	0xbc74fd27	-0.014952934
224	0x3cd3d824	0.0258599
225	0x3d2b2595	0.041783888
226	0xbdb388f7	-0.08766358
227	0x3dee76dd	0.11643765
228	0xbdd9d2c9	-0.10635907
229	0x3d77457a	0.060368992
230	0xbcacf360	-0.021112144
231	0x3d736f62	0.059432395
232	0x3c8244cb	0.015901944
233	0x3c2319c8	0.009954877
234	0x3dbf8ab1	0.09352625
235	0x3d5fca8d	0.054636527
236	0x3d8f4816	0.06996171
237	0xbd19e3fa	-0.03757093
238	0xbe2260ce	-0.1585724
239	0x3da41971	0.08012665
240	0x3d901729	0.070356674
241	0xbdcdcde8	-0.10049039
242	0xbd873795	-0.06602398
243	0xbe0edadb	-0.13950674
244	0xbca8a8e8	-0.020588353
245	0xbd430611	-0.047613207
246	0xbdbeaf79	-0.093108125
247	0xbd079637	-0.03310224
248	0xbe2519a2	-0.1612306
249	0x3d4b6f79	0.049666855
250	0xbe0066e5	-0.12539251
251	0x3decc5aa	0.11561139
252	0x3dae272c	0.08503565
253	0xbde8c3a8	-0.113654435
254	0x3abc0d4c	0.0014347224
255	0xbe25724c	-0.16156882

bias_hh_l0 f4 [256]
0	0xbdeb1f46	-0.11480574
1	0xbe2324c1	-0.15931989
2	0xbdefcf0c	-0.11709413
3	0x398be234	0.0002668068
4	0xbdd44dfc	-0.10366437
5	0xbdabefed	-0.083953716
6	0xbd001169	-0.031266604
7	0x3dbd78d6	0.09251563
8	0x3d85a018	0.06524676
9	0xbd2f6087	-0.042816665
10	0x3de2ace3	0.11068132
11	0xbd043624	-0.032278195
12	0xbcfbf1e6	-0.030754995
13	0xbdea70ea	-0.11447318
14	0xbdf4a917	-0.11946314
15	0x3d7be649	0.061498914
16	0x3cc962e0	0.02458328
17	0xbd11e5b9	-0.03561947
18	0xbdd934a3	-0.10605743
19	0xbcf186fe	-0.029483315
20	0xbe086fd8	-0.13323915
21	0xbd76e2f8	-0.060275048
22	0x3bd21d64	0.006412195
23	0xbd7b69d7	-0.061380234
24	0xbc5fca51	-0.013659076
25	0xbda10a76	-0.078633234
26	0xbdc98b2d	-0.09840999
27	0x3deb228b	0.11481198
28	0x3dc17f34	0.0944809
29	0xbdaf5877	-0.08561795
30	0x3c64ee3c	0.013972815
31	0xbde14f8a	-0.11001499
32	0xbdf84330	-0.1212219
33	0xbb0fb863	-0.0021929971
34	0xbd5be75f	-0.05368745
35	0x3cd66a1e	0.026173647
36	0xbe18462d	-0.1487052
37	0x3cdd10e0	0.026985586
38	0xbe31a577	-0.17348276
39	0xbe14fdd8	-0.14549959
40	0xbdf3ec9c	-0.11910364
41	0xbdf5425f	-0.1197555
42	0x3dbb55df	0.09147238
43	0xbde9adb9	-0.11410088
44	0xbd92d331	-0.07169188
45	0xbdefe822	-0.11714198
46	0xbdb94293	-0.09045901
47	0x3d7c1b2b	0.061549347
48	0x3d2ba734	0.041907504
49	0xbdb0b975	-0.08629123
50	0x3d30bb58	0.043147415
51	0xbd1e5bc8	-0.03866175
52	0xbdd353ec	-0.10318741
53	0xbd4764b6	-0.04868003
54	0xbbdfe1f7	-0.006832357
55	0x3d9fcea6	0.07803087
56	0xbcdc0a9d	-0.02686053
57	0x3d9953fb	0.07486721
58	0x3d07484b	0.03302793
59	0x3ddb53b0	0.107093215
60	0x3d6c8001	0.05773926
61	0x3b0c0948	0.0021367837
62	0xbdb2b9f4	-0.08726874
63	0x3cdb27da	0.026752401
64	0xbd855415	-0.06510178
65	0xbdda62e9	-0.10663397
66	0x3cbbd730	0.022929758
67	0xbd4168cf	-0.047219094
68	0x3d37f49f	0.044911023
69	0xbd8ee6dd	-0.069776274
70	0x3de8b200	0.11362076
71	0x3db328e3	0.08748033
72	0x3b8a004f	0.0042114626
73	0xbdf53ccd	-0.119744875
74	0xbc1ae2c2	-0.009453477
75	0xbda3e515	-0.08002678
76	0x3d6a41aa	0.05719153
77	0xbdb79878	-0.08964628
78	0x3c117ce6	0.008879876
79	0xbe02b3bd	-0.12763877
80	0x3ca1a7eb	0.01973339
81	0xbdea95b4	-0.11454335
82	0xbdfd9804	-0.1238251
83	0xbc4a2eb0	-0.012340233
84	0xbdd743a0	-0.10510945
85	0xbe3bc954	-0.1833852
86	0xbe06dc4b	-0.13169973
87	0x3d7b385e	0.061333053
88	0xbc9f4e2a	-0.019446451
89	0x3da84ac2	0.08217384
90	0x3d254b25	0.040354867
91	0xbda46780	-0.080275536
92	0x3bd6341b	0.006536973
93	0x3bb0e766	0.0053986786
94	0xbce1da42	-0.027569894
95	0x3d6dbdc6	0.05804231
96	0x3b61bb9d	0.0034444102
97	0x3dd1620b	0.10223778
98	0x3da5ff36	0.08105318
99	0xbdabbc22	-0.08385493
100	0xbdddbc06	-0.10826878
101	0x3d89225f	0.06696009
102	0x3d18d247	0.03730991
103	0xbc8160d1	-0.015793236
104	0x3ca3699c	0.01994782
105	0x3ca52f11	0.020164045
106	0xbc866e88	-0.016410127
107	0x3cae3d14	0.021269359
108	0xbdd2e037	-0.10296672
109	0x3b55b0fd	0.0032606714
110	0xbc71a1d4	-0.0147480555
111	0x3dcd2607	0.10017019
112	0x3ced55ad	0.028971517
113	0x3d7a04d8	0.061039776
114	0x3cec3739	0.028834926
115	0xbe205919	-0.15658988
116	0xbdbd3857	-0.092392616
117	0x3d0918bd	0.033470858
118	0xbe0ab24c	-0.13544577
119	0x3d68a6af	0.056799587
120	0xbe34c860	-0.17654562
121	0xba8a8244	-0.0010567387
122	0x3d78c77b	0.060737114
123	0xbb73356d	-0.0037110702
124	0x3d21594c	0.0393918
125	0x3bae5df8	0.0053212605
126	0xbd408385	-0.047000427
127	0xbca3e294	-0.020005502
128	0x3d34f36e	0.044177465
129	0x3c88637a	0.016648997
130	0xbd40c1d2	-0.04705984
131	0xbccbfbe5	-0.024900386
132	0x3da9efa5	0.08297662
133	0xbcb9f3a6	-0.022699188
134	0x3d0af12f	0.033921417
135	0xbcfcb19b	-0.030846408
136	0xbdc55341	-0.0963502
137	0xbd9004c6	-0.070321605
138	0xbd843635	-0.06455652
139	0xbd2aa883	-0.04166461
140	0xbd89ed5d	-0.067347266
141	0xbd577057	-0.05259737
142	0xbdbd04a5	-0.092294015
143	0x3cb3b6ba	0.021937717
144	0x3d9bfc74	0.07616511
145	0xbd29d674	-0.041464284
146	0xbda001fb	-0.07812878
147	0x3cd6d10b	0.026222726
148	0xbd18be8c	-0.037291095
149	0x3b629c1c	0.0034577912
150	0x3aab7712	0.001308175
151	0xbdc99fef	-0.09844958
152	0x3d8c630d	0.0685483
153	0xbdcc1538	-0.09964985
154	0xbdd75ba7	-0.10515528
155	0xbd6db33c	-0.05803226
156	0xbd6ad249	-0.05732945
157	0x3c6086b0	0.013703987
158	0x3e03f66d	0.12886973
159	0xbdae8727	-0.08521872
160	0xbd23e43b	-0.04001258
161	0x3d2b1086	0.041763805
162	0xbd17547d	-0.03694581
163	0xbca96ec1	-0.020682694
164	0xbd3c944f	-0.046039876
165	0x3da7c6c4	0.081922084
166	0xbd8d9669	-0.06913454
167	0xbd91fbd8	-0.071281135
168	0x3e148d93	0.14507131
169	0xbdce8b51	-0.10085166
170	0x3dedbd4e	0.11608373
171	0xbd5f9d4e	-0.054593377
172	0x3d82a101	0.06378365
173	0x3ca0bd85	0.01962162
174	0x3ce3fde7	0.027831031
175	0xbc395a22	-0.011312993
176	0x3d98915b	0.07449599
177	0xbd684f2a	-0.05671612
178	0xbd530cbd	-0.05152582
179	0xbdabe886	-0.0839396
180	0xbdb40479	-0.087899156
181	0x3d55bc2d	0.05218141
182	0xbd16799c	-0.03673707
183	0x3dff1232	0.12454642
184	0x3db5a8f2	0.088701144
185	0x3de33e81	0.11095906
186	0x3c8ab2eb	0.016931018
187	0xbd8617cb	-0.06547507
188	0xbd7ba3f6	-0.061435662
189	0xbd873b80	-0.066031456
190	0x3c90b19d	0.017662818
191	0xbd090d94	-0.033460215
192	0xbd737039	-0.059433196
193	0x3bc2be0c	0.0059430655
194	0x3dc6cc51	0.09706939
195	0x3d76d7cc	0.060264394
196	0xbc3e4203	-0.011612418
197	0xbc945d5a	-0.01811092
198	0x3b745ba3	0.0037286065
199	0x3d41c804	0.04730989
200	0xbbc43168	-0.005987335
201	0xbd1a1a66	-0.03762283
202	0xbd522e9b	-0.051313978
203	0xbc90383b	-0.017604938
204	0x3d70eb03	0.058817875
205	0x3dba6e55	0.091030754
206	0xbdf5b906	-0.11998181
207	0x3c016a0c	0.007898819
208	0xbd40871a	-0.047003843
209	0x3d7b0b3a	0.061290003
210	0x3daedc1f	0.085380785
211	0x3c40240f	0.011727347
212	0xbdb1c7d1	-0.0868069
213	0xbe22409d	-0.1584496
214	0x3da4abb6	0.08040564
215	0x3df4c523	0.11951663
216	0xbc89275d	-0.016742403
217	0x3d0b01fe	0.033937447
218	0xbdf810b8	-0.12112564
219	0x3dc72578	0.097239435
220	0xbcf0dc09	-0.029401796
221	0x3d9128ba	0.07087846
222	0xbda18d2d	-0.07888255
223	0xbdcbec75	-0.0995721
224	0x3cb19b2e	0.02168044
225	0xbd89bbca	-0.06725271
226	0xbdd6593b	-0.10466238
227	0xbbf7e14f	-0.0075647007
228	0xbd6f3ce1	-0.058407668
229	0xbdb2e2c9	-0.08734662
230	0x3d8f277d	0.06989954
231	0xbde14fbb	-0.110015355
232	0xbd9960f9	-0.07489199
233	0x3d620636	0.055181704
234	0x3dbcbb3b	0.09215399
235	0xbc42b3dd	-0.011883703
236	0x3d728f47	0.05921867
237	0xbe23a66d	-0.15981455
238	0x3ca21ac0	0.019788146
239	0x3d08a074	0.033356145
240	0xbd8ba5f9	-0.06818766
241	0xbdc7715e	-0.0973842
242	0xbd492886	-0.04911091
243	0xbd0da92f	-0.034585174
244	0x3d5a8a7a	0.053354718
245	0xbe0fed3a	-0.14055339
246	0xbe21141b	-0.15730326
247	0xbbb351d3	-0.0054724007
248	0xbe688238	-0.22705925
249	0xbdee73a5	-0.11643151
250	0xbdae5d08	-0.08513838
251	0x3c9fd0b2	0.019508693
252	0xbd9cb0e4	-0.07650927
253	0xbdd2720e	-0.102756605
254	0x3dc4ecde	0.09615491
255	0xbe49f850	-0.1972363

weight f4 [4, 64]
0	0x3bc248f7	0.0059291082
1	0x3cb11657	0.021617098
2	0xbd63f0bf	-0.055649515
3	0xbc9445c9	-0.018099682
4	0x3dcd71c6	0.10031466
5	0x3ddfa328	0.109197915
6	0xbe159d18	-0.14610708
7	0x3e1a7ccd	0.1508667
8	0xbe1b3870	-0.15158248
9	0xbaf288f3	-0.0018503949
10	0x3d8aa0c7	0.06768947
11	0x3d16725e	0.036730163
12	0x3e1e232c	0.15443105
13	0x3db270ec	0.087129444
14	0xbc5a0ab0	-0.013308212
15	0xbe0bdfef	-0.13659643
16	0xbd5ce584	-0.05392982
17	0x39ef21dc	0.0004561086
18	0x3d17d3d2	0.037067242
19	0x3dbabfd1	0.09118617
20	0xbd741fe6	-0.059600733
21	0xbc17b8c4	-0.00926036
22	0xbdab168c	-0.0835391
23	0xbe0294be	-0.12752053
24	0xbc835904	-0.016033657
25	0x3df48dda	0.119411185
26	0x3c67af5a	0.014140928
27	0xbd2a50b2	-0.041580863
28	0x3d216c04	0.039409652
29	0x3e210ae8	0.15726817
30	0xbd760810	-0.060066283
31	0xbbce9d6d	-0.0063053877
32	0x3de6cd80	0.11269665
33	0x3c4e166e	0.01257859
34	0xbe00f384	-0.12592894
35	0x3e67e8d4	0.2264741
36	0x3dc513f6	0.09622948
37	0x3dfd83bf	0.12378644
38	0xbd0b1941	-0.03395963
39	0xbcfdf1a8	-0.03099902
40	0xbe041738	-0.12899482
41	0x3dbfb246	0.09360175
42	0x3df45a55	0.11931292
43	0xbd92d318	-0.07169169
44	0xbc9ec000	-0.019378662
45	0xbdaffa2a	-0.08592637
46	0xbd0de08c	-0.034637973
47	0x3de94782	0.11390592
48	0x3e05d590	0.13069749
49	0xbd909099	-0.0705883
50	0xbd9df2f5	-0.07712356
51	0x3e131d94	0.14366752
52	0x3d233c8d	0.039852668
53	0x3d172073	0.03689618
54	0xbe15047c	-0.14552492
55	0xbd7cbdfa	-0.061704613
56	0x3d6759cc	0.05648212
57	0xbc8aa78f	-0.016925601
58	0xbd1e3dba	-0.038633086
59	0x3d775925	0.06038775
60	0xbe266cbc	-0.16252416
61	0xbd09024e	-0.033449464
62	0x3de87322	0.11350085
63	0xbcf243e9	-0.029573398
64	0x3dc0d077	0.094147615
65	0x3d6f5ce5	0.0584382
66	0xbde99bd9	-0.11406679
67	0x3d9c67d4	0.07636991
68	0xbe07fee1	-0.13280822
69	0x3da04a4b	0.0782667
70	0xbd9c6cea	-0.07637961
71	0xbd759ec4	-0.059965864
72	0xbe2780aa	-0.16357675
73	0xbd8e286b	-0.06941303
74	0xbcc12cf5	-0.023581007
75	0xbdc56785	-0.096388854
76	0xbd5b3e9a	-0.0535265
77	0x3dc6ea39	0.09712643
78	0x3d83d66a	0.064373806
79	0xbd5eb7f0	-0.054374635
80	0x3e0ccc3e	0.13749787
81	0x3d25872b	0.04041211
82	0x3cd6fe64	0.02624435
83	0x3dd23346	0.10263686
84	0xbdc2282b	-0.09480318
85	0x3b9095d3	0.0044123917
86	0x3e113076	0.14178643
87	0xbe24d36f	-0.1609628
88	0x3da021fc	0.07818982
89	0x3df6e33c	0.1205506
90	0xbc2e750a	-0.0106480215
91	0xbe283348	-0.16425812
92	0x3a942edc	0.0011305469
93	0x3dd37d2b	0.10326608
94	0xbd20b04b	-0.039230626
95	0xbc93f18c	-0.018059514
96	0x3db8fbb2	0.09032382
97	0x3b9e6b6a	0.004834582
98	0xbd0f734d	-0.03502207
99	0xbcafdea8	-0.021468475
100	0x3b8a87ea	0.004227628
101	0x3e23bdde	0.15990397
102	0x3daf1378	0.08548635
103	0xbdac5b31	-0.08415831
104	0xbdc5c66f	-0.09656989
105	0x3ccafbbc	0.02477824
106	0x3e12d7d6	0.14340147
107	0xbe13362d	-0.14376135
108	0x3d25c142	0.040467508
109	0x3c3d476f	0.011552676
110	0xbdafe397	-0.08588331
111	0x3c3314ad	0.010930222
112	0x3e205829	0.1565863
113	0x3d890e75	0.066922106
114	0xbb49a649	-0.003076928
115	0x3d14f55b	0.0363668
116	0x3ddb5266	0.10709076
117	0xbd0cda1f	-0.034387704
118	0xbdec1c10	-0.1152879
119	0xbb961bf0	-0.004580967
120	0x3e0d5711	0.13802744
121	0x3e014a8d	0.12626095
122	0x3e040671	0.12893082
123	0xbd9d1ba9	-0.076712914
124	0xbcb9c074	-0.022674777
125	0xbe175927	-0.14780103
126	0x3d9c1326	0.0762084
127	0x3d3f546f	0.04671138
128	0xbc97eed2	-0.018546496
129	0xbd4807c8	-0.048835546
130	0x3d144522	0.036198743
131	0x3e171dac	0.14757413
132	0x3da14e47	0.07876258
133	0x3e2f757b	0.17134659
134	0x3ce9d40e	0.028543498
135	0xbcea5d77	-0.02860902
136	0x3d8a903a	0.0676579
137	0xbe2723c5	-0.16322239
138	0x3cf1ca5e	0.029515442
139	0xbe247c2f	-0.16062997
140	0x3e1076c9	0.14107813
141	0x3e25da41	0.16196539
142	0x3dba4ae2	0.09096314
143	0x3d1a4846	0.03766658
144	0xbc7ca531	-0.015420244
145	0xbcf38833	-0.02972803
146	0xbdd1aef4	-0.10238448
147	0x3e102b5a	0.14079037
148	0xbd99d18e	-0.075106725
149	0xbcabf364	-0.020990081
150	0x3e009dc3	0.12560181
151	0xbe0f9bf8	-0.14024341
152	0x3dcb8778	0.09937948
153	0x3e157c18	0.1459812
154	0xbdbbdc73	-0.09172907
155	0x3d1640f6	0.036683045
156	0xbdad114e	-0.08450566
157	0xbd4169d5	-0.04722007
158	0xbdf9b2e9	-0.121923275
159	0x3db6c26f	0.08923804
160	0xbcc2bf31	-0.023772808
161	0x3dc2ca43	0.095112346
162	0xbdd4e715	-0.10395638
163	0x3dceb7be	0.1009364
164	0xbdc1d4eb	-0.09464439
165	0xbcc72e20	-0.024313986
166	0x3e15c6bd	0.14626594
167	0xbcb3f08f	-0.021965293
168	0xbd60f841	-0.054924253
169	0x3b3ba5fb	0.0028632868
170	0xbd589edb	-0.05288587
171	0x3d289512	0.04115779
172	0x3e10dc56	0.14146551
173	0xbd6a1d48	-0.05715683
174	0x3d8ad899	0.06779594
175	0x3ddd9ed0	0.10821307
176	0x3e2f05c8	0.17092049
177	0xbdb0660c	-0.08613214
178	0xbdf2bfa2	-0.11852957
179	0x3d97100a	0.07376106
180	0xbd4952e4	-0.049151316
181	0xbdeff9b7	-0.11717551
182	0xbdab0244	-0.083500415
183	0xbcccd8e3	-0.025005763
184	0xbd0c7d71	-0.034299318
185	0x3e258b76	0.16166481
186	0x3c4eb48a	0.012616286
187	0x3e1fbdbd	0.15599723
188	0xbdd0de60	-0.10198665
189	0xbe137c36	-0.14402851
190	0x3e0c657d	0.1371059
191	0xbd1b5972	-0.0379271
192	0x3ca37bae	0.019956436
193	0xbb889fe0	-0.004169449
194	0xbe19e80a	-0.15029922
195	0x3df4967c	0.11942765
196	0x3d51ad6e	0.051190786
197	0xbd801e60	-0.062557936
198	0xbd9e8e98	-0.07742041
199	0x3dbc645c	0.091988295
200	0xbe2b6f4f	-0.1674168
201	0xbd88cb4c	-0.06679401
202	0x3e57b28f	0.21064208
203	0xbe239690	-0.15975404
204	0x3d5bed3d	0.053693045
205	0xbc9d37ee	-0.019191708
206	0xbd74272a	-0.059607662
207	0x3d491be2	0.049098857
208	0x3e2d61a7	0.16931783
209	0xbda4ddd6	-0.08050124
210	0xbe0c239b	-0.13685457
211	0x3e02a5e0	0.12758589
212	0x3d3c2f02	0.045943268
213	0xbd4a7935	-0.049432
214	0x3d560897	0.052254286
215	0x3c953919	0.018215703
216	0x3dcad217	0.09903353
217	0xbc3faa49	-0.011698314
218	0x3ce85c59	0.028364347
219	0xbe18f229	-0.14936127
220	0xbe02d3df	-0.12776135
221	0xbd3c4c79	-0.045971368
222	0x3bb5a2ef	0.005543105
223	0x3d00973c	0.03139423
224	0x3d164cb1	0.036694232
225	0x3de596ae	0.112103805
226	0xbe3552c0	-0.17707348
227	0x3d8c5525	0.068521775
228	0xbe240fe3	-0.16021685
229	0x3d3f7e9d	0.046751607
230	0x3de5dafb	0.11223408
231	0xbd23fb17	-0.04003438
232	0xbc42dd71	-0.011893616
233	0x3d0539af	0.032525714
234	0x3d9eeed3	0.07760396
235	0x3d8ddaf3	0.06926527
236	0x3e28603b	0.16442959
237	0xbdde53b4	-0.10855809
238	0x3bd61fdd	0.00653456
239	0xbd2ee26c	-0.0426964
240	0xbd4f3f8e	-0.05059772
241	0xbe319905	-0.17343529
242	0xbda554cc	-0.08072814
243	0x3d5b2fd1	0.0535124
244	0x3df85c8e	0.121270284
245	0xbdaabbe4	-0.083366185
246	0x3ceca735	0.028888324
247	0xbde7df8d	-0.11321936
248	0xbdb8ded3	-0.09026875
249	0xbba52152	-0.0050393725
250	0x3df119e9	0.1177252
251	0x3e144e4e	0.14482996
252	0xbdfc44ae	-0.12317787
253	0xbd37e602	-0.044897087
254	0x3e036e7a	0.12835112
255	0xbd253ced	-0.040341306

bias f4 [4]
0	0x3d9077c1	0.07054091
1	0xbd368cbf	-0.04456782
2	0x3d301039	0.04298422
3	0x3c44a058	0.01200112
